export/model.pth (torch, 334470 bytes, 40 tensors)

cls_token f4 [1, 1, 64]
00000000: a55b 31bf fbdf 3540 d77f 403f b70d 253d
00000010: 8475 f03e 60d9 b33f f545 1540 6b5b 603f
00000020: 33f9 cabf d399 303e 6528 92bf e561 8b3d
00000030: 22e1 cdbf 6033 a53f 5e80 5ebf 50f8 cc3f
00000040: 77dc 16bf f0a3 5bbc a91b 433f 041d c8bf
00000050: 5520 b03e 1a6c 4dbe 3d59 693e 5113 11c0
00000060: 9da0 6fbf bc9d a73f b777 47bf d27a a83f
00000070: c6eb bb3f 05cc 743f 212b 61bf 22a9 f93e
00000080: 10ff 433f fe11 10c0 40ad c53f cf52 9c3f
00000090: bd99 5d3e df00 f2be 21c3 b23f 96dd 5e3f
000000a0: 8488 b53f b296 933f 6c1f 01c0 0a4a 0cbf
000000b0: fe82 093f 8bc9 27bf 45f3 fbbd 5d7f 4b3f
000000c0: 21f8 77bf 8473 4c3f 17d3 943e ff11 d73e
000000d0: b33c 0cbf e7c1 fbba e3d3 993e 5063 7a3f
000000e0: d165 29be d2a9 95bf b2d8 a1bf 94c6 023e
000000f0: d852 c3bd 7a49 81be 4697 243e 2880 ef3f
-0.69280463 2.8417957 0.7519507 0.040296283 0.46964657 1.4050713 2.3323948 0.8763949
-1.58573 0.1724618 -1.1418577 0.06805781 -1.608433 1.2906303 -0.8691462 1.6013279
-0.5893015 -0.013405785 0.7621408 -1.5633855 0.34399667 -0.20060769 0.22787948 -2.266804
-0.9360445 1.3095012 -0.77917045 1.3162482 1.4681327 0.9562381 -0.87956434 0.4876185
0.7656107 -2.2510982 1.5443497 1.2212771 0.21640678 -0.4726629 1.3965799 0.87056863
1.4182286 1.1530364 -2.0175428 -0.54800475 0.53715503 -0.65541905 -0.12302259 0.79491216
-0.9686299 0.7986376 0.290673 0.42005917 -0.5478012 -0.0019207568 0.3004447 0.9780779
-0.16542746 -1.169245 -1.2644255 0.12771064 -0.095372856 -0.2525137 0.16073331 1.8710985

input_proj.weight f4 [64, 76]
00000000: 30c4 d43d 05be d63d e9da 603d cc68 9b3c
00000010: 8775 45bd 5e4d a73b 2bc6 20bd a225 d6bc
00000020: 6b3f 893d ca2a 103d 5b30 f0bd 03b8 08be
00000030: d7d5 afbd c236 9d3d 2c5d 13bc 6b77 a03d
00000040: b99c 223c 8b8e c9bd 0d0c 11bd 3bf5 f4bb
00000050: 6d67 cdbd 8628 48bd 7091 473d 6258 dc3d
00000060: 8dbb 9eba f3c2 a5bc 7f0f c93b dd7e d639
00000070: 1100 963c 8f82 c93c 6b19 df3d 0117 923c
00000080: 3451 90bd 8170 cc3d 67fb 533d 0a25 c43c
00000090: 6ed2 b4bd 39ed e03c f414 ddbd 2072 b3bd
000000a0: 48af d0bc a790 e9bb 4172 77bb 1a36 ad3d
000000b0: 1b45 69bd 3169 84bd b30f 9abd 9ec1 923c
000000c0: bac8 abbd bcbc 86bc deed 1d3e 321b 363c
000000d0: 9355 513d 6d28 c03c 4746 56bd 8f2e dd3d
000000e0: 40e9 d83b effd 0a3d 9a1f dabd 1c2f 153c
000000f0: c4d5 f23b bf60 c33c 7485 02be 2315 113d
00000100: 6084 bc3d e27e 2c3e fbda cc3d f6fb fd3d
00000110: 0aea 793d 2216 d8bd ee23 1ebd 9799 c2bd
00000120: 82f0 d7bd d628 673d 5234 023d 0256 433d
00000130: b259 f53d 67f8 2cbe 1b2e 9bbd d23d 0abd
00000140: 62db 343b ace9 91bc 3c17 903b 703e c63d
00000150: 4edd a43d 7cef cabd a474 d63d 8a25 bc3a
00000160: 8bde 0cbd 7833 2d3d bb2a 473d c783 1d3e
00000170: 6b54 09bd aba9 ea3d d1e0 a3bc 7481 efbc
00000180: 1c27 853d b87c b5bd ccf8 2e3c cf81 c23d
00000190: c463 de3d 5f40 4fbd ebb9 033e b7b0 2dbd
000001a0: 5e06 c1bc 253a 893d 760b 793d b458 263d
000001b0: 22b2 3fbd 9140 a4bd cadc 8d3d 8f3b f33c
000001c0: 3bef 72bd b9d0 8cbd 1b78 84bd 3dba d2bc
000001d0: 39aa 0f3d c396 67bd 9334 02bd 25fb 97bd
000001e0: 4814 98bd 47e2 a83d 25df 6fbc a3f1 1ebd
000001f0: 5821 5cbb 5874 083c 26b1 9e3c 0126 083e
00000200: 219b 813d 41d5 e93d ea02 b1bd c7b1 ad3d
00000210: 40ed d53a 0296 a93d 5342 b9bd 6280 a73c
00000220: 2d2e f6bd 76cd 343d d50a 98bd e2e3 b5bd
00000230: 5d98 023d d926 71bd aa12 003d 738f f03d
00000240: 7719 d13d 7e57 dcbd b895 d7bd 9907 5abd
00000250: f8fb 71bc aeb6 afbd 329e 6c3d b21d 22bd
00000260: fc31 8a3d e9ba 17bd 6003 02be 06d8 c0bd
00000270: 9269 f2bd 8d23 b4bd a6d7 a83c 5c72 8abd
00000280: 879e 5c3d 5530 af3c 5fcb 0abc 0c64 d63d
00000290: 420e f63d 5d99 bebd 3fc2 aebd f296 ea3d
000002a0: 6432 ec3d 0b8f 643d 4301 803d 8fbd f9bd
000002b0: e230 0cbd acec a8bd dad3 d0bc c3d6 f43c
000002c0: a7f7 663d b490 9cbd 239a 963d c7cf 7abd
000002d0: c7c3 823d 8dcc 0dbe 1ee0 4f3d 537a b03c
000002e0: 3bad c03d 41dc f8bd 9b57 82bd 9720 3b3d
000002f0: 6847 d5bd b089 95bd c661 71bd 6d18 953d
00000300: f854 913d 595a e93c e290 6bbd 7ac9 dd3d
00000310: f0ab 89bd 7e2b b9bd fd02 a53c 7401 103e
00000320: e090 b5bd e50a 04bd 19df 923d 0042 99bd
00000330: 8360 d6bd dc02 b83d 8ea0 643d 34cc d33c
00000340: 1ade 36bd 88c0 8f3a 398a 2dbd fe75 4b3d
00000350: 963a c1bd f97a a1bd 516e a73d da8b 043d
00000360: d4e8 803d e84e 173d 87da c8bb 4c32 60bd
00000370: 338e 913d 06c7 8cbd b2ee 91bd fb3d a73d
00000380: 8590 af3d 12e2 073d 2a8c 97bd 504c b6bb
00000390: d602 9bbc 6127 623c c108 dbbd 0508 1a3c
000003a0: 98a7 843c c9c9 9bbd 1dfb 06be a345 133c
000003b0: 9879 e6bc b34d 8c3d 6349 733d c011 5a3d
000003c0: 1d3b d93d 822c 743d 9ddb 4dbc dc85 473d
000003d0: c7b4 f0bd 36ed e13d 8fa5 74bd 930a 83bc
000003e0: 759c 543d aba5 113e d649 e93d 9e09 12be
000003f0: a1ba ccbd 7be4 31bd eae8 ef3b ef96 c5bd
0.10388982 0.10485462 0.05489627 0.01897087 -0.048207786 0.0051056584 -0.039251488 -0.026140992
0.06701549 0.035197057 -0.11727973 -0.13351445 -0.085857086 0.0767646 -0.008994382 0.07835277
0.009925061 -0.09841641 -0.035411883 -0.007475523 -0.100294925 -0.04886677 0.048722684 0.10759045
-0.0012110338 -0.02023456 0.0061358805 0.0004091178 0.018310579 0.024598388 0.1089352 0.017833235
-0.07046738 0.09982396 0.051753428 0.023943443 -0.08829199 0.027456867 -0.10795012 -0.08762002
-0.025474206 -0.0071278396 -0.003775731 0.08457585 -0.05695067 -0.06465376 -0.07522526 0.01791459
-0.08387895 -0.016447417 0.1542277 0.011114882 0.051107 0.023456777 -0.052313115 0.10799896
0.0066196024 0.033933576 -0.10650559 0.00910547 0.0074107368 0.023849843 -0.12746221 0.03542055
0.09204936 0.16845277 0.10002705 0.12401573 0.061014213 -0.105510965 -0.038608484 -0.09501951
-0.1054392 0.05643543 0.031788178 0.047689445 0.11979999 -0.16891633 -0.07577153 -0.033750363
0.0027596583 -0.017811619 0.004397301 0.09679878 0.08050023 -0.09908959 0.10471466 0.0014354449
-0.03439192 0.042285413 0.048624735 0.153823 -0.033527773 0.11458143 -0.020004662 -0.029236533
0.065016 -0.08861679 0.010679435 0.09497415 0.108588725 -0.0505985 0.12863891 -0.042404857
-0.023562606 0.06700543 0.060801946 0.040611938 -0.04680074 -0.080201276 0.06926878 0.029691486
-0.05931018 -0.06875748 -0.06468221 -0.025723571 0.035074446 -0.056540262 -0.03178842 -0.07420949
-0.07425743 0.08246284 -0.014640604 -0.03880466 -0.003358921 0.00832852 0.01937158 0.13295747
0.063284166 0.11417628 -0.08643134 0.08481174 0.0016321316 0.08280565 -0.090458535 0.02044696
-0.12020526 0.044141255 -0.07423941 -0.08881356 0.031883586 -0.05887494 0.0312678 0.11746111
0.10209935 -0.10758875 -0.105266035 -0.053229902 -0.014769547 -0.08579765 0.057768054 -0.0395791
0.06747815 -0.037043486 -0.126966 -0.09416203 -0.11836542 -0.08795843 0.020610642 -0.067600936
0.05386212 0.021385351 -0.008471339 0.10468301 0.12014438 -0.093065955 -0.08533143 0.11454572
0.11533049 0.05580048 0.06250241 -0.121943586 -0.034226306 -0.082482666 -0.025491644 0.029887563
0.056388523 -0.076447874 0.07353618 -0.06123331 0.06384998 -0.13847561 0.050750844 0.021542704
0.09408041 -0.12151385 -0.06364366 0.045685377 -0.1041401 -0.073016524 -0.058931135 0.072800495
0.07096285 0.028485464 -0.057511218 0.10829444 -0.067222476 -0.090414986 0.020143026 0.14063054
-0.08865523 -0.032236952 0.07171459 -0.074832916 -0.10467627 0.089849204 0.05581718 0.025854208
-0.044645406 0.0010967413 -0.042368148 0.049673073 -0.094350025 -0.07884783 0.08175338 0.032359935
0.062944084 0.036940485 -0.006129566 -0.054735467 0.071072005 -0.06873898 -0.07125606 0.08166119
0.08572487 0.03317458 -0.07399781 -0.0055632964 -0.01892225 0.013803334 -0.10695029 0.009401326
0.016193196 -0.07606847 -0.1318173 0.008988771 -0.028134152 0.068507574 0.05939616 0.053239584
0.10606978 0.05961276 -0.012564567 0.048711643 -0.117532305 0.110315725 -0.0597282 -0.015996253
0.05190702 0.14223354 0.11391036 -0.14261481 -0.09996534 -0.043430787 0.0073214667 -0.09647929

input_proj.bias f4 [64]
00000000: b7f8 d63d 3698 263d 259e babd 6174 963d
00000010: a538 adbd ba03 e2bd d96d 9d3d e63e 7bbd
00000020: f61a 8dbd b725 ed3d 0500 69bc ef8f cf3d
00000030: 98a6 85bd 33fc 85bd ab5d 623c f8a3 94bd
00000040: 313e a6bc 6904 613d be2c 5cbc f8df c8bd
00000050: 1564 053d 707e 9fbb 0c0a f7bc 7455 aebd
00000060: 347c fbbc d14f 943d ce71 843c f23c 95bc
00000070: f300 4ebd 263c 24bc fba6 8d3d 42ba 993d
00000080: 471b ca3d e5cb 87bc f78b 693d 2d67 593d
00000090: 709c 46bc 3afa 283d 7857 e23c fcb8 3fbd
000000a0: 7ad1 70bc 3b35 0dbe 4d7d efbc d470 97bb
000000b0: 283e 623d 3e52 10bc 0f7e dfbc 66cf 883d
000000c0: 7ef4 66bc f9e8 203d a0d4 8fbd 9144 363d
000000d0: b653 943d ab18 60bd ea57 4fbc 860d 423d
000000e0: 67a1 3abd 8102 50bd e538 023d 20f2 80bc
000000f0: 2703 afbc 2215 adbd 82af 063e a991 9f3d
0.10496657 0.040672503 -0.09112195 0.07346416 -0.0845807 -0.11035867 0.076869674 -0.06133928
-0.06889908 0.11579459 -0.014221196 0.10134875 -0.06525916 -0.06542244 0.0138162775 -0.07257837
-0.020293327 0.054935846 -0.013438402 -0.09808344 0.03256615 -0.0048673674 -0.030156158 -0.08512393
-0.030698873 0.07241786 0.016167548 -0.018217538 -0.050293874 -0.010024106 0.069166146 0.07506229
0.09868484 -0.016576717 0.057018247 0.05307691 -0.012122259 0.04125426 0.027629599 -0.046807274
-0.014698381 -0.13789837 -0.029234553 -0.0046216045 0.055235058 -0.008808671 -0.02728179 0.06680183
-0.014096377 0.03928468 -0.07022977 0.044498984 0.07242529 -0.054711025 -0.012655238 0.04737618
-0.04556408 -0.050783638 0.03179254 -0.015740454 -0.021363808 -0.084512964 0.13152888 0.07791454

pos_embed.pe f4 [1, 128, 64]
00000000: 0000 0000 0000 803f 0000 0000 0000 803f
00000010: 0000 0000 0000 803f 0000 0000 0000 803f
00000020: 0000 0000 0000 803f 0000 0000 0000 803f
00000030: 0000 0000 0000 803f 0000 0000 0000 803f
00000040: 0000 0000 0000 803f 0000 0000 0000 803f
00000050: 0000 0000 0000 803f 0000 0000 0000 803f
00000060: 0000 0000 0000 803f 0000 0000 0000 803f
00000070: 0000 0000 0000 803f 0000 0000 0000 803f
00000080: 0000 0000 0000 803f 0000 0000 0000 803f
00000090: 0000 0000 0000 803f 0000 0000 0000 803f
000000a0: 0000 0000 0000 803f 0000 0000 0000 803f
000000b0: 0000 0000 0000 803f 0000 0000 0000 803f
000000c0: 0000 0000 0000 803f 0000 0000 0000 803f
000000d0: 0000 0000 0000 803f 0000 0000 0000 803f
000000e0: 0000 0000 0000 803f 0000 0000 0000 803f
000000f0: 0000 0000 0000 803f 0000 0000 0000 803f
00000100: a46a 573f 4151 0a3f ce7a 2e3f b054 3b3f
00000110: ba7d 083f 0d94 583f f090 d13e c792 693f
00000120: 3e39 9f3e 6b4e 733f 258f 703e f1d5 783f
00000130: 3a23 353e 83f6 7b3f f325 083e 28ba 7d3f
00000140: 7675 cc3d 98b8 7e3f 366f 993d d147 7f3f
00000150: ae36 663d 6898 7f3f faac 2c3d bdc5 7f3f
00000160: 5b81 013d 3cdf 7f3f a53e c23c 93ed 7f3f
00000170: 42ab 913c a3f5 7f3f 497a 5a3c 2cfa 7f3f
00000180: 57d6 233c b9fc 7f3f 16b9 f53b 28fe 7f3f
00000190: 5a44 b83b f7fe 7f3f 5a2e 8a3b 6bff 7f3f
000001a0: 1c3e 4f3b acff 7f3f 0369 1b3b d1ff 7f3f
000001b0: 2015 e93a e6ff 7f3f 8ac9 ae3a f1ff 7f3f
000001c0: 6d12 833a f8ff 7f3f 8994 443a fbff 7f3f
000001d0: 136a 133a fdff 7f3f 2117 dd39 ffff 7f3f
000001e0: 61cb a539 ffff 7f3f 0da8 7839 0000 803f
000001f0: 5377 3a39 0000 803f 6dd4 0b39 0000 803f
00000200: b7c7 683f 3311 d5be d95a 7f3f 534d 913d
00000210: 0af2 663f b2e8 dc3e 1135 3f3f 0339 2a3f
00000220: 1b54 173f ec7b 4e3f b5d3 e93e 69be 633f
00000230: f647 b23e a6fa 6f3f 82f0 863e f5f2 763f
00000240: f86f 4b3e a5e5 7a3f d300 193e 4f20 7d3f
00000250: 86d9 e53d f361 7e3f ae85 ac3d 0e17 7f3f
00000260: c870 813d f97c 7f3f aa30 423d 4eb6 7f3f
00000270: 5ca5 113d 8ed6 7f3f 5075 da3c b1e8 7f3f
00000280: 3ed4 a33c e5f2 7f3f 51b7 753c a1f8 7f3f
00000290: 9b43 383c dbfb 7f3f 0a2e 0a3c abfd 7f3f
000002a0: d83d cf3b b1fe 7f3f e768 9b3b 43ff 7f3f
000002b0: 0815 693b 96ff 7f3f 7fc9 2e3b c4ff 7f3f
000002c0: 6812 033b dfff 7f3f 8594 c43a edff 7f3f
000002d0: 126a 933a f5ff 7f3f 1f17 5d3a faff 7f3f
000002e0: 60cb 253a fdff 7f3f 0ca8 f839 feff 7f3f
000002f0: 5377 ba39 ffff 7f3f 6dd4 8b39 0000 803f
00000300: c381 103e 2670 7dbf de3c 473f cebf 20bf
00000310: d745 7e3f ab7f edbd 6321 743f 6318 9a3e
00000320: c209 503f 582f 153f b724 273f a2e7 413f
00000330: 6c2f 023f 296d 5c3f a768 c73e 37c9 6b3f
00000340: 6c4e 973e ef90 743f e26d 643e 928c 793f
00000350: d7ee 2b3e 9e5d 7c3f 2c33 013e 43f4 7d3f
00000360: c0ff c13d 4fd9 7e3f 0693 913d 3a5a 7f3f
00000370: 4e69 5a3d c3a2 7f3f c5d1 233d 90cb 7f3f
00000380: 1fb9 f53c 83e2 7f3f 4747 b83c 6bef 7f3f
00000390: c631 8a3c adf6 7f3f 4644 4f3c c1fa 7f3f
000003a0: 0d6e 1b3c 0dfd 7f3f 131d e93b 58fe 7f3f
000003b0: a8cf ae3b 11ff 7f3f 1317 833b 7aff 7f3f
000003c0: 929b 443b b5ff 7f3f 606f 133b d6ff 7f3f
000003d0: 171f dd3a e8ff 7f3f 56d1 a53a f3ff 7f3f
000003e0: 10b1 783a f9ff 7f3f 097e 3a3a fcff 7f3f
000003f0: 7ed9 0b3a feff 7f3f a4be d139 ffff 7f3f
0.0 1.0 0.0 1.0 0.0 1.0 0.0 1.0
0.0 1.0 0.0 1.0 0.0 1.0 0.0 1.0
0.0 1.0 0.0 1.0 0.0 1.0 0.0 1.0
0.0 1.0 0.0 1.0 0.0 1.0 0.0 1.0
0.0 1.0 0.0 1.0 0.0 1.0 0.0 1.0
0.0 1.0 0.0 1.0 0.0 1.0 0.0 1.0
0.0 1.0 0.0 1.0 0.0 1.0 0.0 1.0
0.0 1.0 0.0 1.0 0.0 1.0 0.0 1.0
0.84147096 0.54030234 0.68156135 0.731761 0.53316844 0.8460091 0.4093089 0.9123959
0.3109836 0.9504153 0.23492105 0.9720145 0.17689219 0.9842302 0.13295726 0.99112177
0.099833414 0.9950042 0.07491915 0.9971896 0.05620449 0.9984193 0.04215715 0.999111
0.031617504 0.99950004 0.023711512 0.99971884 0.017781857 0.99984187 0.013334819 0.99991107
0.009999833 0.99995 0.0074988706 0.99997187 0.0056233825 0.9999842 0.0042169513 0.9999911
0.0031622713 0.999995 0.0023713715 0.9999972 0.0017782785 0.99999845 0.001333521 0.9999991
0.0009999998 0.9999995 0.000749894 0.9999997 0.0005623411 0.9999998 0.00042169637 0.99999994
0.00031622782 0.99999994 0.00023713727 1.0 0.00017782794 1.0 0.00013335208 1.0
0.9092974 -0.41614684 0.99748 0.070948265 0.9021307 0.43146282 0.7469035 0.6649324
0.5911271 0.8065784 0.45669332 0.8896242 0.34820527 0.93741834 0.26355368 0.96464473
0.19866931 0.9800666 0.1494172 0.98877424 0.1122313 0.9936821 0.08423935 0.99644554
0.063203394 0.9980007 0.04740969 0.9988755 0.03555809 0.9993676 0.026667267 0.99964434
0.019998666 0.9998 0.014997319 0.9998875 0.011246587 0.99993676 0.008433828 0.9999644
0.006324511 0.99998003 0.00474273 0.99998873 0.0035565514 0.9999937 0.0026670394 0.9999964
0.0019999985 0.99999803 0.0014997876 0.99999887 0.0011246821 0.99999934 0.0008433926 0.99999964
0.0006324556 0.9999998 0.0004742745 0.9999999 0.00035565588 0.99999994 0.00026670416 1.0
0.14112 -0.9899925 0.7782725 -0.6279267 0.9932532 -0.11596616 0.95363444 0.3009673
0.8126489 0.58275366 0.652904 0.7574407 0.5085361 0.86104065 0.3894703 0.92103904
0.2955202 0.9553365 0.22307542 0.9748012 0.16790329 0.9858035 0.12617177 0.9920084
0.094726086 0.99550337 0.071081206 0.9974705 0.053323083 0.9985773 0.039994974 0.99919987
0.0299955 0.99955004 0.022494925 0.999747 0.016869437 0.9998577 0.012650555 0.99991995
0.009486687 0.999955 0.0071140616 0.9999747 0.005334813 0.99998575 0.0040005534 0.999992
0.0029999954 0.9999955 0.0022496805 0.9999975 0.0016870227 0.99999857 0.0012650888 0.9999992
0.00094868336 0.9999996 0.00071141176 0.99999976 0.0005334838 0.9999999 0.00040005625 0.99999994

encoder.layers.0.self_attn.W_q.weight f4 [64, 64]
00000000: 533e b4bd 930c d3bd 7276 98bd 58dd 0f3c
00000010: bab8 41bd 532b 873d 4c60 c5bd 9d67 02be
00000020: 74ca 99bc b046 6d3c 38aa aa3d 7a72 2dbd
00000030: 1ceb 21bd 2666 b03c e93a 2bbc af21 3d3d
00000040: 8b9f 963c 5910 80bd bb6d e53d bd51 44bd
00000050: fcb1 bd3d eaf2 edbd 8f03 823d 774b 913d
00000060: f46e f73d 269d e3bd c574 453d 95a1 3d3d
00000070: ee24 843d 4997 a3bd a318 6e3d 05f2 003c
00000080: c8a8 9d3c ceb4 833d 3b11 b3bd 42ed a63d
00000090: b228 cd3c 70ab 9ebd 50d4 2c3d bcb0 90bd
000000a0: 36fc c7bc 15f4 adbd e8fe 1abc 560e 85bd
000000b0: 5074 a23d c276 d33d 1ba2 133d cb69 dd3d
000000c0: d68e d53d 6a3f 123d aa9c f83d af33 3a3d
000000d0: 274f c03c e798 e0bd 2e55 acbd 5d60 38bd
000000e0: 44f5 053d 467c 88bd f894 59bd 23a3 be3d
000000f0: 5127 88bd 2e8d 90bc 0265 2cbd ab9d d63d
00000100: d888 5c3d 1fac d43d 3eae 063e d764 0e3d
00000110: b284 b93d 8856 fcbd c4e4 c9bc 7015 b2bc
00000120: 641c e63d fb7f d03c 3674 423d 68d6 c0bd
00000130: a06a 45bc 135a 113d 0141 783d 919b 37bc
00000140: ea39 19bd 28df 84bd 2efd 9c3d e069 e93d
00000150: ebf3 0d3d f191 de3b f265 c3bd 05ec 273d
00000160: 09c5 3ebd af7f bcbd 96c0 9abc 2dba c7bc
00000170: 6f1e 273d 4e2f f1bd 30ac 103d 4605 8b3c
00000180: 2807 0a3e 39e0 d83d 5aaf d83d 92fa 633d
00000190: d9fd 003e 0c03 033c 6a01 4f3d 08d3 633d
000001a0: 90f3 d4bc 6baf 193d 1c1b cd3b 5b7c c13c
000001b0: afa6 f33d d0df 273c a3be 94bd 9017 c8bd
000001c0: 49ed a83d 702c 103d 67fc 5f3c 0365 be3d
000001d0: fc71 01bd 80cc f43d 0391 733d 3757 ec3d
000001e0: c461 a33d 2428 c03c 8096 003e db9f 27bd
000001f0: bd0a 09be 2ca0 f63d f918 c0bd 9c31 eebd
00000200: ec80 0f3c b527 ebbc 8d47 82bd bc82 a9bc
00000210: 95db 11bc 7f09 19bd 35f9 f6bd 949d aebd
00000220: 6867 e5bd 8ec1 bfbc fadd cabd b0c6 283d
00000230: 52de 35bc c156 debd b80d f43d 056a 0fbd
00000240: 348c a3bd 3a81 02bc 5183 cdbc 998a c8bd
00000250: 98ad d43d d8ad d3bd f9c7 bebb 3170 793b
00000260: 92c1 dabd 9b4b f53b 79a1 fbbc a592 d7bd
00000270: 5ea4 ed3c a46c 893a 24bd 9d3d d060 26bc
00000280: 412e f83d f457 e33d 84e8 50bd 37d1 c3bd
00000290: 072d 9c3d 7420 b93d 8ed6 ebbd 6b1e f0bc
000002a0: 1dba e4bd 19b3 493d 4af9 003d 2eaa ee3d
000002b0: a1db 24bd 38ec a83d b3d6 cbbd a67d ec3d
000002c0: 53e9 e13d 4279 a93c feca c2bd 20e3 ddbc
000002d0: a777 41bb 1059 31bd 4f5d 233d 59ba acbd
000002e0: a12c 9bbc 8f59 0dbe 33cb 96bd a3cf d0bd
000002f0: f673 93bc 3de9 afbd 7787 763d c198 d63d
00000300: eaff 323d 5110 0c3e 6495 b0bc 4ce5 dc3b
00000310: 3590 d4bc 6aae 3cbd 1968 233d fcec 0b3d
00000320: 3102 bb3d 97e2 b5bc 7b88 333d 287a 323c
00000330: 3de8 abbc ed13 a1bd d861 d13b df45 fc3a
00000340: d650 a7bd bf73 583d 80dd 8fbd d624 ffbd
00000350: 824f 653d 41f4 adbd 5547 9d3d f83f 483d
00000360: 7372 253d b19f d9bd acfd 9cbd 91ef ca3c
00000370: 9fa2 203d 804c 2a3d 1dac 43bd 4882 8fbd
00000380: 8409 053d 5fda 6ebd a28d 0abd 0d51 dc3d
00000390: 93f9 51bd ca63 bebd bf6d ed3d 4ca9 dfbd
000003a0: 4e33 ec3d 4d43 a03d c36b 433d b53f ba3d
000003b0: 0a3a 153c 948b eabd adee 8aba e3d1 93bd
000003c0: 6035 ee3b d9cf 9b3d 973f 74bd e034 e73d
000003d0: 54e8 96bd b48f f6bc 7c33 e2bc 3ccf 513d
000003e0: 8d4e 8fbd ed6d 0a3c 61ee 85bd 2129 7cbb
000003f0: 4a05 f6b9 575d d33d dc50 db3d 5841 fb3d
-0.0880095 -0.10305133 -0.07444467 0.0087808 -0.04729531 0.0660006 -0.09637508 -0.12734838
-0.018773295 0.014482185 0.08333248 -0.0423455 -0.03953086 0.021533083 -0.010451057 0.0461747
0.018386623 -0.06253118 0.1120257 -0.047929514 0.092624635 -0.11618598 0.06348335 0.07094472
0.120817095 -0.11113958 0.048207063 0.046296675 0.06452356 -0.0798784 0.058128964 0.007870202
0.01924552 0.0643097 -0.08743521 0.08150722 0.02504382 -0.07747543 0.042194664 -0.070649594
-0.024412256 -0.084938206 -0.009460188 -0.06496875 0.07932341 0.10325386 0.036043268 0.10811194
0.104276344 0.035705008 0.12139256 0.045459446 0.023475243 -0.10966664 -0.08414684 -0.045013774
0.032704607 -0.06664328 -0.053120583 0.093084596 -0.06648124 -0.017645445 -0.042088516 0.104792915
0.053841442 0.10384392 0.13152406 0.034764137 0.09058513 -0.12321192 -0.024645217 -0.021738738
0.11235884 0.02545165 0.04747411 -0.09415895 -0.012049347 0.035486292 0.060608868 -0.0112065235
-0.037408747 -0.06487876 0.07665478 0.11397147 0.034656446 0.0067923 -0.09540929 0.04099657
-0.046574626 -0.09204041 -0.01889066 -0.024380768 0.040800508 -0.11776601 0.03532046 0.016970288
0.13479292 0.10589642 0.10580321 0.055658884 0.12596835 0.007996332 0.050538458 0.055621177
-0.025995046 0.037520807 0.006259335 0.023618868 0.11897027 0.010246232 -0.072629236 -0.09770119
0.082483836 0.03519863 0.013671017 0.0929661 -0.031602845 0.11953068 0.059464466 0.115400724
0.07977632 0.02345664 0.12557411 -0.040923934 -0.13383003 0.12042269 -0.09379763 -0.11630556
0.008758765 -0.028705457 -0.063613035 -0.020692222 -0.00890245 -0.03736257 -0.12059251 -0.085261494
-0.11201364 -0.023407724 -0.0990562 0.04120511 -0.011100369 -0.10856391 0.11916679 -0.035013217
-0.07985726 -0.00796538 -0.02508703 -0.097920604 0.10384673 -0.103358924 -0.0058221784 0.0038061256
-0.10681452 0.0074858195 -0.030716645 -0.10526017 0.02900904 0.0010484648 0.07702091 -0.010154918
0.12118197 0.1110076 -0.051002994 -0.09561389 0.07625776 0.09039393 -0.115155324 -0.02931138
-0.11168311 0.049243066 0.03148774 0.11653553 -0.040248517 0.0824818 -0.0995306 0.11547403
0.11030831 0.020687703 -0.09511374 -0.02708584 -0.0029520781 -0.043297827 0.039883908 -0.084339805
-0.01894218 -0.13803695 -0.07362976 -0.101958536 -0.01799963 -0.085894085 0.060187783 0.10478354
0.04370109 0.13678099 -0.02155561 0.0067412015 -0.02594767 -0.04606477 0.039894197 0.034161553
0.09131277 -0.022202773 0.04383133 0.010893382 -0.020984763 -0.07865129 0.0063898377 0.0019246897
-0.08169715 0.05284476 -0.0702467 -0.12458198 0.055984028 -0.08493853 0.07679621 0.04888913
0.04039235 -0.10626162 -0.076655716 0.024772437 0.039217588 0.041576862 -0.047771562 -0.07007271
0.032479778 -0.058313724 -0.033826478 0.10757647 -0.051263403 -0.09296377 0.11593198 -0.10920963
0.11533223 0.078253366 0.04771019 0.090941824 0.009108076 -0.11452404 -0.0010599695 -0.07217767
0.0072695464 0.07608003 -0.059630957 0.11289382 -0.07368532 -0.03009782 -0.02761244 0.051223025
-0.06997404 0.00844906 -0.06539608 -0.0038476663 -0.00046924717 0.103205375 0.10708782 0.12268323

encoder.layers.0.self_attn.W_q.bias f4 [64]
00000000: 8dd4 123d 1a3a 023e 6c37 e2bb 8d92 31bd
00000010: 074b b5bd 8df0 01bd cc71 8a3d d65c 67bd
00000020: b560 2abc cc84 b2bd 1235 613d d4af 4abd
00000030: 4489 d5bd e849 92bd 134f 033e d938 babd
00000040: ed53 7a3d e24e b33d ae1a 673d 7eac e33d
00000050: 9906 c3bc e04b c43d f3ab 03be 8538 82bd
00000060: d07b 1a3a eb02 293a 9bdc 84bd 10c3 f23d
00000070: 7e63 81bd 215e 2b3d 2ee3 4a3c 5df5 e53d
00000080: 715b 033e cf6e 0b3e f972 833d 144d e6bd
00000090: a330 43ba ff3a 5ebd 7462 023d f7bf dcbc
000000a0: 4cf2 893d 6cba 833d b995 b13d cd24 8fbb
000000b0: 6a64 d5bd ddd4 f6bd 95de 99bd 9735 b4bd
000000c0: 41f5 c03d 8a55 95bd 4082 e13d 3b3a d8bc
000000d0: 4127 d5bd e3e4 af3d fdc8 e9bd 2b46 04bd
000000e0: ec8a 1cbe 768b 22bd 996b 09be 7f8a c1bc
000000f0: ef4b 9ebd 934f e6bd 70b7 f3bc 2eeb 993d
0.035847235 0.12717476 -0.0069035795 -0.043352652 -0.08852201 -0.031723548 0.06759986 -0.05648502
-0.010399033 -0.08716735 0.054982252 -0.04948409 -0.10426572 -0.07143003 0.12823133 -0.09092874
0.061115194 0.0875528 0.056421928 0.11116885 -0.023806857 0.095847845 -0.12858562 -0.063584365
0.0005893083 0.0006447273 -0.0648739 0.118536115 -0.06317805 0.041837815 0.012383265 0.1122844
0.12827851 0.13616489 0.06418414 -0.1124517 -0.0007445907 -0.05425548 0.031832173 -0.026947005
0.067356676 0.064320415 0.086711355 -0.0043684007 -0.10419543 -0.12052319 -0.07513157 -0.08799284
0.094217785 -0.07291706 0.11011171 -0.026394954 -0.10407878 0.085885786 -0.114152886 -0.03229348
-0.1528737 -0.03968378 -0.13419951 -0.02362561 -0.07729327 -0.11245646 -0.029750556 0.0751556

encoder.layers.0.self_attn.W_k.weight f4 [64, 64]
00000000: 4a7d d7bd 3b01 7ebc edc8 e0bd 2298 b5bd
00000010: d803 bcbc edf9 8cbd ef63 02be 9500 953d
00000020: 070e 2dbe 36ab 89bd 4bb2 55bd c69f 013e
00000030: 0943 6f3d 1164 373d 25d3 0c3e e91a c93c
00000040: 75db b43d 462a a73b 6edf 04be 2723 d1bc
00000050: 0bf6 7e3d 8a86 913d 79d5 6bbd 4f77 85bd
00000060: 952d e2bd e08f 1c3d af9c e5bd 0ce1 db3d
00000070: 237c fc3b aea8 2a3d 1dcb 4ebd d489 193c
00000080: b162 e1bb 52cb 7b3d 8db3 8d3d 266c 2d3d
00000090: e70f 31bd 9bb5 ae3d cd26 d8bc 88e8 0ebd
000000a0: 33f4 373d 4cec 143d 0521 373c ac7e c3bd
000000b0: 07b1 56bc 03a4 3ebd aff6 9b3d a9d4 9cbd
000000c0: 46f1 e2bd f305 583d 634a 08be 68d3 e13a
000000d0: 8c61 063e 1eb1 aabd 2d68 89bd 31e2 49bd
000000e0: a9f3 95bc 59ba b1bc 72ff 163c a63b da3d
000000f0: b7f7 a6bc 0377 e1bd f621 c3bc 5c6a 2f3d
00000100: 3dcd 0f3c ca3e c53c d3e6 9c3d 1f94 6ebc
00000110: a115 e7bd b52b 983d db99 c2bd 247c 36bd
00000120: cf54 0c3d e2d5 b0bc 8d49 883d 7da4 b9bd
00000130: e7b0 e5bd 363e 3f3d 081a b43d 1ba0 983d
00000140: 777c 933d 512c 8f3d ac01 50bd ace1 b7bd
00000150: 9ba1 b33d 911e 94bc fa3a 81bd 5313 a13d
00000160: d533 ca3d 9d0c 95bd 8402 8ebd d495 d43d
00000170: 9a38 cebc 4266 15bc 3b32 003e 19f3 f0bc
00000180: 0d59 a23d 6a57 a23b df03 763c 34f6 cdbd
00000190: c236 98bd 83f1 46bc 5ff9 f73b ddb4 cd3d
000001a0: 8543 8ebd 727e 323e d213 a0bd f68e 98bd
000001b0: 6d66 ef3d ec1a e8bd 2e56 75bd d76e f03d
000001c0: 347a 9fbd 6acf bf3d a2e2 ab3d df7c d13d
000001d0: 7fcc 14bd 5ec9 adbd 224b b23d 5b86 c6bd
000001e0: f047 be3b 7fe4 88bd 18c5 1bbc 48cf 283d
000001f0: af29 c83d b7b2 803d 00b0 2b3d f0f4 9a3d
00000200: f718 223d 4052 9a3d d48a 2f3b e81e 993c
00000210: bd4c a53d a71b 27bd bb73 893d 7389 d4bd
00000220: 012c 1abd e44c 053c 3190 933d f1c0 6e3b
00000230: 20a7 e7bc 8268 a63d 7d0b 173d 506d aa3d
00000240: 75f5 a7bd 3152 b43d 5f8a 77bd bccc 94bd
00000250: 79be e03d 3f7f 94bd dd81 c9bd feff c13b
00000260: c2eb 923d 501e ecbd 97bd 043e 3765 5b3d
00000270: 0b5b 063e 5beb 93bd e05a 3c3d 820e 3fbc
00000280: dd4c 253c 69ca d9bd 2b9f d93d ee83 cbbd
00000290: f0c4 093e 9700 ce3d c942 8bbd b54b 8cbd
000002a0: 9143 fb3d 41a8 de3d b1f2 873c c63e ad3c
000002b0: 8afb cabd b7bf c7bd a285 2fbc b819 7ebd
000002c0: 1961 b2bd b4c4 dd3d 5b1f 923d f01a 713a
000002d0: d5f8 3b3d 838e 76bd 5f8e ccbd 3897 b1bc
000002e0: 65dd a43c 2a37 9a3d 41c2 23be d709 8dbd
000002f0: 8ce5 1d3d fccd 2dbd f475 d2bd e2e6 c23d
00000300: 0f88 ed3d 1c6f 6d3d fe8c e33d ec39 7bbd
00000310: 4f0a 0ebd ff51 b53b d7e4 b4bc 1bfd 9a3d
00000320: 00dd 6d3d 7181 883c 5197 b93d ba35 a53d
00000330: 2ae8 f63d 2afd d5bc 5482 ea3d 8f37 b6bd
00000340: 5c52 c53d 28db b5bd 461a a1bd 9227 f23d
00000350: 7ec4 cdbd 6a49 c53d 8139 413d b162 863d
00000360: 1716 5c3a c2b9 da3d 9761 d8bd edf8 803d
00000370: 5bae 943d 1f8c fd3c fbab b23d ecf6 aa3b
00000380: ecf8 f03d 9954 af3d b9cc 983d a4ff d6bd
00000390: 3987 873d b2ab cc3d dad5 0c3c 1013 48bc
000003a0: efb5 28bc 5f1b df3c 9258 b73c 3a03 803d
000003b0: 8f48 fb3d 9d6e 2cbc c765 073e 3d31 dc3d
000003c0: fc34 2abd dc1d 8fbd 5702 1939 8d20 f33d
000003d0: b9be 2a3d e270 e83b 113f 043c 5eec c13c
000003e0: 992e 013e 4c8e b7bb bef6 5d3d 216e bb3c
000003f0: 45b2 063e 71cd 9b3d bf7a 073e b630 0abe
-0.10521944 -0.015503223 -0.109758236 -0.08866908 -0.022951052 -0.06883607 -0.12733434 0.07275502
-0.16899882 -0.06722109 -0.052171987 0.12658605 0.05841354 0.044773165 0.1375242 0.024548965
0.088309206 0.005101475 -0.12975857 -0.025529457 0.062246364 0.071057394 -0.05757663 -0.06516897
-0.1104385 0.038223147 -0.11211526 0.10736284 0.007705228 0.04166477 -0.050486673 0.00937124
-0.00687822 0.0614732 0.06919012 0.042339467 -0.043228056 0.08530732 -0.02638569 -0.034889728
0.04491062 0.036358163 0.011177306 -0.09545645 -0.01310373 -0.046543133 0.076154105 -0.07657749
-0.110811755 0.05274005 -0.13309626 0.0017229142 0.13123149 -0.08334564 -0.06709323 -0.04928798
-0.018304663 -0.021695303 0.009216176 0.10655908 -0.020381792 -0.11009028 -0.023819905 0.04282604
0.00877696 0.024077792 0.07661214 -0.014561682 -0.11283422 0.074302115 -0.09502002 -0.044551983
0.034260567 -0.021586362 0.06654654 -0.09064577 -0.11215382 0.04669019 0.087940276 0.07452413
0.07201474 0.069908746 -0.050782844 -0.0897859 0.08771058 -0.018080981 -0.06310077 0.07865014
0.098731674 -0.072777964 -0.069340736 0.1038014 -0.025173474 -0.009118618 0.12519161 -0.029412793
0.07927141 0.004954268 0.015015571 -0.10056725 -0.07432319 -0.012142542 0.007567569 0.100442626
-0.06946472 0.17431048 -0.078162804 -0.07449143 0.11689458 -0.1133326 -0.05989664 0.11739891
-0.0778698 0.09365733 0.08392836 0.102288954 -0.036327835 -0.08485673 0.08705737 -0.09693595
0.0058069155 -0.06684207 -0.00950744 0.041213304 0.097735755 0.06284087 0.041915894 0.07566249
0.03957459 0.07535219 0.002678563 0.018691495 0.08071277 -0.040797856 0.06711527 -0.10377779
-0.03763962 0.008136008 0.07205237 0.003643092 -0.028277934 0.08125402 0.03687619 0.08321631
-0.08201114 0.08804739 -0.060434695 -0.072656125 0.1097383 -0.07250833 -0.098392226 0.005920409
0.071738735 -0.11529219 0.12962948 0.053563323 0.13120668 -0.07222625 0.045985103 -0.011661174
0.010089126 -0.1063431 0.10626062 -0.09937273 0.13454032 0.10058706 -0.06799848 -0.068503775
0.12268747 0.10871936 0.016595216 0.021148097 -0.099112585 -0.097533636 -0.010713013 -0.062036246
-0.08709926 0.10828534 0.07134887 0.00091974344 0.0458916 -0.060194504 -0.09988093 -0.021678552
0.0201251 0.07530053 -0.1599207 -0.068866424 0.03854899 -0.04243277 -0.10276404 0.09516694
0.11598217 0.05796729 0.111108765 -0.061334535 -0.0346778 0.0055334563 -0.022081776 0.07567807
0.05807209 0.016663285 0.090620644 0.08066888 0.120560005 -0.026121695 0.11450639 -0.08897316
0.096348494 -0.08879691 -0.078663394 0.11823954 -0.100472435 0.09633143 0.04717398 0.06561793
0.00083956256 0.10679962 -0.10565489 0.06297479 0.07259818 0.030950604 0.08724209 0.0052174237
0.11766228 0.085610576 0.07460923 -0.10497978 0.066175885 0.09993686 0.008595908 -0.012211576
-0.010297283 0.027234731 0.0223811 0.062506154 0.12269699 -0.010524419 0.13222419 0.10751579
-0.041554436 -0.06988117 0.00014592089 0.11871443 0.041685794 0.007093535 0.008071677 0.023672279
0.12615432 -0.00560168 0.05419039 0.022879662 0.13153942 0.07607544 0.13230418 -0.13495144

encoder.layers.0.self_attn.W_k.bias f4 [64]
00000000: da8b 3fbd dafc 9bbd 4850 9bbc 2a31 9c3b
00000010: b85a af3d 0d75 bd3d 8ce8 c63c d91e a93c
00000020: 7bb9 d6bd ad69 e6bd 12b9 1dbd 6216 e93d
00000030: edb8 d9bd d1a7 8a3c 3f98 0f3b 6470 8cbd
00000040: b412 fbbb 47b7 f33c b93d 263d 1ce4 6f3d
00000050: c49e 873d 9be0 e1bd 1249 e6bd b4b5 fb3c
00000060: 304c 733d f041 f8bd 58c9 663d 69c9 a93c
00000070: 178f 39bd 45de 803c 999a 7cbb e33c 603d
00000080: 73dc 813d 40f6 b5bd 61b5 29bc 0933 6e3c
00000090: 966e d6bd 6152 ab3c d9cb be3d 7025 bc3c
000000a0: d9b8 3b3c 2de4 94bb d6cd bfbd a665 72bd
000000b0: f6c4 84bd 576d 40bc 6d16 aebc b897 933c
000000c0: 60dc f53d 947c e1bd fd67 bc3d efac 053c
000000d0: 63cf 9cbb 8386 903d ca68 b3bd 399e f6bc
000000e0: 1b9e b5bd 34fa 12bc a905 b43d 71be ec3d
000000f0: ed74 6cbd f3a7 803d 490d 653d add7 bd3c
-0.046764232 -0.07616587 -0.01895918 0.004766603 0.08562225 0.09250841 0.024280809 0.020644592
-0.10484596 -0.11250625 -0.038506575 0.11381222 -0.10630975 0.016925724 0.0021910814 -0.06857374
-0.0076621417 0.02975048 0.040586207 0.05856715 0.06622079 -0.11029168 -0.11244406 0.030726291
0.05939883 -0.121219516 0.05634436 0.020725923 -0.045302477 0.015730986 -0.0038544296 0.054745566
0.063408755 -0.08884859 -0.0103581855 0.014538535 -0.10470311 0.020913305 0.093162246 0.02296707
0.011457645 -0.0045438022 -0.09365432 -0.05917897 -0.0648288 -0.011744819 -0.021250928 0.018016681
0.12004924 -0.110100895 0.09199522 0.008158906 -0.0047854646 0.07056906 -0.08760221 -0.030104743
-0.08868047 -0.008970786 0.08790142 0.11559761 -0.057728697 0.06282034 0.055920873 0.023174131

encoder.layers.0.self_attn.W_v.weight f4 [64, 64]
00000000: 6aed 3d3b a18b 083d a42f eebd 3ec9 bdbd
00000010: 3d93 24bd 940f d03d d93e bf3d 3528 4b3d
00000020: 5ae2 58bd d056 d1bd 8bbd d73d 3024 87bd
00000030: 31d1 32bd 746a 91bc 409b a7bd 5dae 40bd
00000040: 35e7 e4bd b692 1abe a348 b9bd aae0 58bc
00000050: 2408 adbc 8989 583d a061 013e b0d4 0abd
00000060: 00e5 4e3d 81dc 9f3b 8f4e 313c 9d84 6a3d
00000070: 4f12 d83c 6362 97bd fab0 323d 7c88 30bd
00000080: 8103 f63d 7e3f 7abd df2c 22bd 529e a1bc
00000090: 857b ffbd f2b4 ab3d bf34 8dbd f77e 913d
000000a0: e19c c0bd 8d0f 2bbd 47ff fcbc aa86 98bd
000000b0: 2304 97bd 8d2f 873d 1238 113e 8e42 07bd
000000c0: eb43 853d ae14 56bd 0b2f 04bd 2e22 083d
000000d0: 5777 cebd 5d6a 97bb 5981 ff3d 13ad 99bd
000000e0: 8e4d 963d 0245 663d 1349 cb3c 70ab 96bd
000000f0: a6a3 dfbd a166 92bd 0325 ca3c 106c 1b3d
00000100: 9549 9b3d e73b 5d3d c8bc 0d3e 505b af3d
00000110: b41a 9bbd 3e2e 913c 3af2 d03d b5cc 313d
00000120: 0b52 a0bd 7c81 87bd 825f 92bd a764 af3d
00000130: b0df 353d b50d b13d 6f50 583d 45c4 94bd
00000140: e481 3bbd f23c 1e3e fe5a 3fbd 87a5 4f3d
00000150: 390e fd3d 26ee 83bd 1dce 1a3d 4aa4 623d
00000160: 63ea 9f3c 2469 c4bd 489b b8bd 7bed 253c
00000170: 3add 4a3d c6d6 683d 5f61 42bd 0632 ed3d
00000180: ba0c fc3d fd91 b73d 2814 f6bc 052c 253d
00000190: 5fd2 08be ff23 013e 3019 cdbd 0dcf d9bd
000001a0: b5e3 143e 31f1 843d 97e0 053d 3b44 a23d
000001b0: 9c9a 0a3e fa1f a1bd 5ce9 163b af78 093d
000001c0: 98d5 e93c 1f17 e8bd 8fef 6a3c 950b dd3d
000001d0: abfe afbd 637e aa3d ba65 ea3d 6c30 edbd
000001e0: f626 de3d 7add 83bc 042b edbd 1886 e3bd
000001f0: 0473 ecbd 75e5 82bd a0ff 893d 42d8 d0bc
00000200: 5e9d 12bd 7042 79bd 745b c4bd 7c6b bc3d
00000210: ab78 483d 4577 52bd bd6f a8bd a8b6 17be
00000220: f122 48bb 89cd d93d cb20 133e 424e 8a38
00000230: d2f3 213c ae8d 753d f2fd e1bd ea41 c03c
00000240: 093f dcbd ab04 5f3d 7971 80bd d91d 823b
00000250: d6de c6bd eb55 493c 973b 15be 1ebe 453c
00000260: 3911 08bd a68d adbc 448b 9abd 06d7 a03d
00000270: f100 ae3b 7f5c c83d 56bd 7c3d 6f52 823d
00000280: 028f 573c 6360 f1bd ba43 9f3d 9e34 e1bc
00000290: 9ee9 4ebc fbab ae3d 625c 45bd d551 9f3d
000002a0: eaba 8ebd 3b23 893d 6fa8 9cbd df45 a33c
000002b0: abef b0bd 66d7 a23d fb96 bfbd 208f 39bc
000002c0: 5aed b43d 454e 0e3c 1db9 913d dd56 f8bd
000002d0: 0445 e13d 1315 ca3d 9a1c b53d bf86 da3d
000002e0: 4a1b 0dbd 3262 07be 8dbf f2bd 41ca 2fbd
000002f0: b0de 943c 6bb1 973d b9ab ef3d 3540 e3bd
00000300: 4992 463d 61d8 363d 465a b9bc 1f80 3bbd
00000310: 3031 f1bd 1c06 c1bd 4cfe 93bd f4c8 ba3c
00000320: 0948 98bc 1b8b 643d 0629 9cbd a97a 3c3c
00000330: d605 0e3e c18a bb3d 6d35 583d 61a7 2dbc
00000340: 182c 85bd db32 cd3d 8110 8fbc 4065 0cbe
00000350: 1f00 963d d83d 87bd b39e e23d d8b7 53bc
00000360: e78b 79bd d955 57bd 6c56 45bd e85a f4bc
00000370: 7c98 cbbc 0a5f b0bb 1c7a ab3d aa52 0e3c
00000380: a9ec c13c f8d4 36bc a519 bbbd 5191 b23d
00000390: 9ae5 053e 2e80 c83c 2e24 203c bdc9 94bd
000003a0: 4efd cebd 2a27 96bd f81d a9bc 3740 e8bd
000003b0: ea0d a0bd 5e1a 8bbc 17ac f73d 498f 6b37
000003c0: e8a0 bf3d c816 44bd e8e0 433d af73 b93d
000003d0: a7d6 ac3d 2100 42bb fbfc be3c 5f60 493d
000003e0: 18f4 813d 9339 873d b150 923d f08b 583d
000003f0: 9b0f 92bd f645 d0bc 4921 313d 717b cfbd
0.002898062 0.033336286 -0.116301805 -0.092668995 -0.04017948 0.10159221 0.09338159 0.04959889
-0.05295024 -0.10221636 0.10534199 -0.06598699 -0.04365653 -0.017750956 -0.081839085 -0.047041286
-0.11176912 -0.15095028 -0.090470575 -0.013237158 -0.021122046 0.05286554 0.12634897 -0.03389424
0.05051136 0.004878581 0.0108219525 0.057255376 0.026375918 -0.07391813 0.04362581 -0.04309891
0.12012387 -0.061095707 -0.039593574 -0.019728813 -0.12474731 0.08384122 -0.06894826 0.07104295
-0.09404922 -0.041762877 -0.030883444 -0.0744756 -0.07373836 0.066008665 0.14181545 -0.033022456
0.06507095 -0.052265815 -0.032271426 0.03323572 -0.10081356 -0.004620834 0.12475843 -0.075037144
0.07339011 0.056218155 0.024815118 -0.07356918 -0.10919885 -0.07148481 0.024675852 0.037944853
0.07582394 0.054012205 0.13841546 0.08562338 -0.075734526 0.017722245 0.10202451 0.043408114
-0.078281485 -0.06616494 -0.07147123 0.0856412 0.04440278 0.086451925 0.052811082 -0.07263998
-0.04577817 0.15452936 -0.046717636 0.05069497 0.123562284 -0.064419076 0.03779422 0.05533246
0.019520944 -0.095903665 -0.090139925 0.010127421 0.049527384 0.05684545 -0.04745614 0.11581807
0.12307115 0.08963392 -0.030038908 0.040325183 -0.133615 0.12611388 -0.1001457 -0.10635195
0.14539988 0.06491316 0.03268489 0.0792317 0.13535541 -0.07867427 0.0023027277 0.03356236
0.028544232 -0.11332535 0.014339342 0.10793225 -0.08593496 0.083248876 0.11445184 -0.11581501
0.10847275 -0.01609682 -0.1158047 -0.11109561 -0.11545375 -0.06391422 0.0673821 -0.025493745
-0.03579461 -0.060854375 -0.09587756 0.092001885 0.048943203 -0.051383276 -0.082244374 -0.14815772
-0.0030538405 0.10634906 0.14367978 6.5949294e-05 0.009884791 0.05994957 -0.11034764 0.02346893
-0.107542105 0.05444781 -0.06271643 0.0039708433 -0.09710471 0.012288551 -0.14573513 0.012069253
-0.03321955 -0.021185707 -0.07546094 0.078535125 0.005310171 0.09783267 0.061704002 0.06363379
0.013156654 -0.117859624 0.0777659 -0.02749091 -0.012628941 0.085288964 -0.048183806 0.0777928
-0.06969245 0.06696173 -0.07649314 0.019930778 -0.08639463 0.0795124 -0.09354969 -0.011325628
0.08834334 0.008685653 0.07115386 -0.12125943 0.10999492 0.09867301 0.08843346 0.10670232
-0.034449853 -0.13221052 -0.11852942 -0.042917494 0.018172592 0.07406887 0.11702675 -0.11096231
0.048479352 0.04463995 -0.022626054 -0.045776483 -0.1177696 -0.094249934 -0.07226238 0.0228009
-0.018589037 0.055796724 -0.07625012 0.011503854 0.13869414 0.091573246 0.052785326 -0.010598988
-0.06502551 0.100194655 -0.017463924 -0.13710499 0.07324242 -0.06603593 0.11065426 -0.01292225
-0.060924437 -0.052572105 -0.04817812 -0.029828504 -0.024852984 -0.0053824233 0.083729 0.008686701
0.023672419 -0.011159174 -0.09135751 0.08719123 0.13075867 0.024475183 0.009774251 -0.07265041
-0.10106908 -0.07331689 -0.020644173 -0.11340373 -0.07815154 -0.016980346 0.120933704 1.4040453e-05
0.09356862 -0.04787329 0.04782191 0.09055268 0.08439379 -0.0029602128 0.02331399 0.049164172
0.06345385 0.06602778 0.07144297 0.05286783 -0.07131883 -0.025423985 0.043244634 -0.101309665

encoder.layers.0.self_attn.W_v.bias f4 [64]
00000000: a622 c7bd fedd d7bd f6aa 92bc 585c 923c
00000010: b6a2 d7b8 06d4 a5ba 2d15 543d aa58 453c
00000020: 866e 59bc ddcc 01be cc84 f0bd 8d9b e1bd
00000030: d5b4 cbbd 3edd 9fbd 92ff 2bbd 0766 8e3c
00000040: 7924 c03d e163 a2bd c5c4 a0bd baf5 e3bd
00000050: 622d cdbd 9c99 b33d fced ce3c 35ef cf3d
00000060: 5311 b8bb 422e 8f3d 5d59 d1bd 6f62 cf3d
00000070: a252 1b3d c6bd 09bd bb14 39bc e530 72bd
00000080: 8b6d dcbd b529 b5bc 86fa e03d 9327 063a
00000090: e9d3 593c 069d 6b3c 8cb1 bbbd bdb7 d1bd
000000a0: 75a0 1b3c d141 a53d b2a1 d2bc a55f 323d
000000b0: 76d4 1ebd 1561 b93b b31e e53c 7cd2 cdbd
000000c0: ded4 f6bc a60e 613c 2970 e1bd 9342 603d
000000d0: 186d c63d 96e4 093d 7853 f8bd 2208 083d
000000e0: 603a 693d d388 da3c 2697 9b3d 54ee cf3d
000000f0: be1f c2bd b405 d53d 99e5 32bd 5ab6 dd3d
-0.097234055 -0.105403885 -0.017903786 0.017866299 -0.00010282306 -0.0012651689 0.051778007 0.012045065
-0.01327098 -0.12675805 -0.11744079 -0.11015997 -0.099466 -0.078058705 -0.041991778 0.017382635
0.093819566 -0.07929207 -0.07850031 -0.11130853 -0.10018422 0.08769533 0.025259964 0.10153047
-0.0056172996 0.06991245 -0.10222123 0.101261966 0.0379206 -0.033628248 -0.011296446 -0.05912866
-0.10763081 -0.022114614 0.109852836 0.00051175914 0.013295152 0.014380699 -0.09164724 -0.102401234
0.009498705 0.08069194 -0.025711868 0.043548245 -0.038776837 0.005657325 0.02796874 -0.10049912
-0.0301308 0.013736403 -0.11007721 0.05475099 0.09688777 0.033665262 -0.121252954 0.03321088
0.056940436 0.026676571 0.07597189 0.10152879 -0.094787106 0.104014784 -0.043675993 0.108257964

encoder.layers.0.self_attn.W_o.weight f4 [64, 64]
00000000: 0f90 8e3b 98fb b3bc e35a f03d 99b0 de3c
00000010: c2f6 8c3d 0123 2abc b2ee c9bd acee d43d
00000020: da84 9d3d baa0 133b e8bb 143e 19d8 c9bd
00000030: ca9c 8bbd 2595 6c3d b549 5ebc a409 e8bd
00000040: 5c21 883d fd03 433d 3a7e 333d 6fc9 8a3d
00000050: bc2b fdbd 7290 80bb 4fa7 9e3d 43c9 273e
00000060: 6d81 fc3d 560c 873d 5a98 9f3d 1e3f d73d
00000070: 6e97 d2bc d2f6 8b3d 09ac 4e3d a389 31bd
00000080: 7323 aabd 40b5 a6bd 97a1 623d 6c7f 683d
00000090: d8c7 a7bd 1938 0bbe eb57 bf3a 5d26 d33d
000000a0: bb48 99bd 091e d83c a94e c23c 53df fb3d
000000b0: 81ea c43d 1fd4 7f3c 8152 183d a367 a6bd
000000c0: 1721 5ebd 871b 123d d448 cb3c 05e8 84bd
000000d0: e476 6c3c d481 323b f432 8d3d ffb5 8bbc
000000e0: 3ff9 14bd 0569 303c 9781 553d 5b5b ecbb
000000f0: c713 8e3d 209f 8fbd 7083 383d a157 48bc
00000100: de89 993d bf32 293e 3f2b f63d 2323 703c
00000110: d91c 94bc 25c5 6d3d 5e14 dbbd a83c 803d
00000120: e7ba 06bd 4b8a 6ebd 8d7e ac3d 4ad1 fdbd
00000130: b8fc 69bd da58 2c3c a7d5 c0bd 9b95 11bd
00000140: 3940 d9bd 60b9 96bc 861e 643d 4203 0c3e
00000150: 65c2 843d 2309 10be 04c0 263d 3fd0 363d
00000160: c25a e2bc 9ad5 edbb 755f 333d f695 553c
00000170: 73e2 2e3d 2f2d 04be 1c24 f23d b5c8 983d
00000180: 3b38 cbbd 68a6 e43d f0f0 b93d e1da 5a3c
00000190: d55d 1ebe 4d3b b5bc 3059 403d ef88 0dbe
000001a0: a363 dbbc 43c5 c5bc fde1 f4bd 883d 8dbd
000001b0: 9c7e 08be 9ec4 453d 17db 513d aa9e 99bd
000001c0: 2191 cbbc 9f0f 413c 1843 06bd 9a9f bd3d
000001d0: a764 4bbd 1374 1f3e 9406 173d 9f9c 403d
000001e0: 5dd8 39bb b972 79bd fb6e 37bc c88e cfbd
000001f0: 3dbe 2abd 326a 13be ff5c f4bd 8950 acbd
00000200: beb5 a4bd fd13 913d 991b b7bd 103d 653d
00000210: 089a 3bbb c525 d13b e5c0 8ebd 3643 77bd
00000220: a10b 24bd db30 b3bc 7417 45bd 3f6c c03d
00000230: b50a b0bd 0a75 fcbd d26a 3a3d 1556 31bd
00000240: 2d80 a53d 953c 6f3d 3c11 bb3d de81 0cbb
00000250: e737 75bc f6e0 f3bd 9a29 adbd 3831 10bd
00000260: 2a56 993d 930c bfbb b297 003d dca0 763d
00000270: 5d63 babd 72cd 653d 9fc1 4fbd 7cb7 1a3d
00000280: d39f 77bd 6829 fbbd 8d1a efbd 9542 a33d
00000290: 6485 293e 3a6a 0a3d bbab bdbd d00d 243d
000002a0: 8c9c 0cbd e080 d73c 5a8d 513c 98f4 1c3d
000002b0: 1f19 5b3d d60c 183b f232 833c 35b5 e33c
000002c0: 47a4 49bd ca28 b63d f1c7 543d 8ceb c9bc
000002d0: 482a 85bd d646 cf3d 045a 823b d824 fbbd
000002e0: d320 cfbb 06cb b3bc 52b6 8c3d 9508 aebc
000002f0: 07a3 d83d fd6a c53d 0e08 2b3d 2628 dc3c
00000300: 8fac c5bd 154d 3fbd a8dd 0e3e 5bfa 453d
00000310: bc87 59bd f4ee 10bd 224b 8ebd e97f f7bc
00000320: e3b5 103d 32e2 d0bd 2b29 81bd b050 ccbd
00000330: e798 993d 96b8 e23d cbfc e0bd 3e06 1a3d
00000340: 0b43 bdbc 06ee 573c 684a 0d3d 0810 02bc
00000350: 4398 f63d a044 95bd 7e56 a4bc fbb3 b93d
00000360: 7f8b 453d 1138 fc3d f03b febd c565 e43b
00000370: e34d d83d f3b7 d1bd eea1 023e b567 663d
00000380: e37a 7cbc 6b94 75bd 9e15 abbd 60b0 c93d
00000390: ed6e 5c3d 2582 15be 7144 80bd ba82 98bc
000003a0: 6c80 043d 4a0f 843d 7f1e 01be 6108 c0bc
000003b0: 8328 d8bd db9e 59bc 1ecf c2bd 5f20 2aba
000003c0: f509 0fbd ad03 7bbd 13e3 6cbd e9e1 f6bc
000003d0: 0def 66bd f32a e43d 0cc4 673b 2ed9 933d
000003e0: ba3d d03c 8514 f83c 3079 84bd c961 74bd
000003f0: ede4 eb3c 3e86 28bd aa47 96bd 59b0 a73d
0.004350669 -0.021970555 0.11736085 0.027183818 0.06883003 -0.010384322 -0.09859981 0.103970855
0.07691355 0.002252622 0.14524806 -0.098556705 -0.068170145 0.057759423 -0.013567378 -0.11329964
0.06646988 0.047611225 0.04382155 0.06776702 -0.12361857 -0.003923469 0.07746755 0.16385369
0.123293735 0.0659415 0.07792731 0.105100855 -0.025706973 0.068341866 0.050457034 -0.04334415
-0.08307543 -0.081400394 0.055329885 0.056762144 -0.08192414 -0.13595618 0.0014598345 0.103100516
-0.07484575 0.02638151 0.023719149 0.12298455 0.096150406 0.015614538 0.037188057 -0.08125236
-0.054230776 0.035670783 0.024815 -0.06489567 0.014432643 0.0027238028 0.06894484 -0.017054556
-0.036370512 0.010767226 0.05212554 -0.007213039 0.06937366 -0.070127726 0.045047224 -0.012227924
0.07496999 0.16523264 0.12019967 0.014656815 -0.018080162 0.05804934 -0.10697244 0.06261569
-0.032893088 -0.058237355 0.08422575 -0.12393434 -0.057125777 0.010519231 -0.09415751 -0.035543066
-0.106079526 -0.01839894 0.055693172 0.13673118 0.0648239 -0.14065985 0.040710464 0.044632193
-0.027631167 -0.0072581293 0.043792207 0.013036242 0.042696428 -0.12907861 0.118232936 0.07460157
-0.099228345 0.11164552 0.09079158 0.013357849 -0.15465482 -0.022123003 0.046960056 -0.13821767
-0.026780909 -0.024141913 -0.11957166 -0.06896502 -0.13329548 0.048283212 0.05123433 -0.07500966
-0.024849476 0.0117835095 -0.03277883 0.09258957 -0.049656536 0.15571623 0.036871508 0.047024366
-0.0028357722 -0.060900424 -0.011195893 -0.10134655 -0.04168533 -0.14395979 -0.119318 -0.08413798
-0.08042477 0.070838906 -0.08940811 0.055966437 -0.0028625745 0.0063826763 -0.069703855 -0.06036683
-0.040050153 -0.021873882 -0.04811807 0.09395646 -0.08595792 -0.12327011 0.045512028 -0.043294985
0.08081088 0.058407385 0.091341466 -0.0021439712 -0.014966941 -0.11908142 -0.084552005 -0.03520319
0.074871376 -0.0058303564 0.031394668 0.060212 -0.09100983 0.05610413 -0.05072176 0.03777264
-0.060455155 -0.12263757 -0.11674986 0.07971684 0.1655479 0.03379271 -0.092612706 0.040052235
-0.034328982 0.02630657 0.0127900485 0.0383192 0.053490754 0.002320101 0.016015504 0.027796367
-0.049228933 0.08894499 0.05194849 -0.02464845 -0.06502205 0.10120933 0.003978016 -0.12262887
-0.0063210516 -0.021947395 0.06870712 -0.021244327 0.1057797 0.09639547 0.04175573 0.026874613
-0.096520536 -0.04670437 0.13951743 0.04833446 -0.053107962 -0.035384133 -0.06947924 -0.03021236
0.03532971 -0.10199393 -0.0630668 -0.099763274 0.07499867 0.11070363 -0.109857164 0.03760361
-0.023103258 0.013179308 0.034494787 -0.007938392 0.1204076 -0.0728848 -0.020060774 0.09067532
0.048228737 0.12315381 -0.12413776 0.0069701397 0.10561731 -0.10240164 0.12757084 0.056251246
-0.015410158 -0.059955996 -0.083537325 0.09848094 0.053816725 -0.14600427 -0.06263054 -0.018617023
0.032349035 0.06448229 -0.1260929 -0.023441495 -0.10554602 -0.013282503 -0.09512161 -0.0006489809
-0.034921605 -0.061282802 -0.057833742 -0.03013702 -0.05638032 0.111410044 0.0035364656 0.07219158
0.025420059 0.030283222 -0.06468427 -0.059663568 0.028795684 -0.04114365 -0.073378876 0.081879325

encoder.layers.0.self_attn.W_o.bias f4 [64]
00000000: 2be8 c63d 6ff2 dabd 03d5 bebc cbe0 883d
00000010: eecb fa3d 25fa ed3d fd4f 453d e047 8e3d
00000020: 034f 40bc ded5 483d 23ca 643d ac0f b13d
00000030: bccb 973d eb73 6e3d f3df 8f3d fe55 13bd
00000040: 66f9 03bc 9d12 8fbd b085 b4bd 7098 aabc
00000050: 0b8d 09bd 09ca ac3d d5c4 bc3b c955 b53d
00000060: 0514 1a3d e3a8 cc3a 6971 06bd c714 1cbd
00000070: 7206 2fbd 2916 6fbd 5fe1 ff3d 7281 29bc
00000080: dca2 153d 1f1c 1e3d 5d35 143d 6a6f 72bd
00000090: d310 adbb f4ae d5bd 6d18 7a3d e6d1 bfbc
000000a0: 1bae 5c3d 33a4 b63b 4db7 6c3d 7e2e ecbd
000000b0: 0968 9bbd 8bbd 633c 97cc 3bbd d5e9 e9bd
000000c0: dd7d e03d 1317 073d 9d6f 36bd 9fdb cf3d
000000d0: 4555 803c 78a3 23bc b7ef b13c 6496 933b
000000e0: 034a c1bb fb26 563d 687a 8c3d baf2 2a3d
000000f0: ac5c 46bd f9fd 603d c957 293d 234f c83d
0.09712251 -0.10690772 -0.023294931 0.06683501 0.12245928 0.11619977 0.048171986 0.06947303
-0.011737588 0.049032085 0.055856835 0.08645567 0.07411906 0.058216017 0.07025137 -0.03597068
-0.008055067 -0.06985972 -0.08814561 -0.020824641 -0.033581775 0.08436973 0.005760769 0.08854253
0.03761675 0.0015614297 -0.032823 -0.038105752 -0.042730756 -0.058370743 0.12494158 -0.010345804
0.036532268 0.038601037 0.036183704 -0.059188284 -0.0052815466 -0.1043376 0.06105845 -0.023415517
0.053876977 0.0055737733 0.057791997 -0.11532305 -0.075882025 0.013900171 -0.04584941 -0.11421553
0.109615065 0.03298099 -0.044540036 0.10149311 0.01566566 -0.009987704 0.02172075 0.004504012
-0.0058987155 0.05228327 0.06859285 0.04173539 -0.048428223 0.054929707 0.041343484 0.09780719
