app/modelo/export/model2.pth (torch, 334470 bytes, 40 tensors)

cls_token f4 [1, 1, 64]
00000000: 9925 293e 1077 1f3f 200f f3bd 8d1e fbbf
00000010: 1442 7ebe 9b1d 85be d8a6 e6bf e0e6 ca3e
00000020: 2954 8cbe e3fd 743f 3ff2 0d3f c828 f0bf
00000030: 361e 88be 306a 32be 4cfc cb3f f0e4 e83f
00000040: 72be 1b3e 3944 d4bf a846 0b3f 1c7c e23f
00000050: 8c24 d8be 7864 2cbf 1341 e93e 7a4c b13e
00000060: 1ca5 b0be 2f44 b83f 2c58 8cbf d6f6 fd3f
00000070: 8d2f 9bbe 2c02 31bf 9453 313e ef2b 8a3e
00000080: b29b a23d dc91 34bf 7bc3 153f fcee a83f
00000090: 53e4 043e 38fa be3f 85df 37bf 5a94 cb3d
000000a0: 319d 01bf b29f a1be 97b2 cabd 5d60 093f
000000b0: baf8 3640 1f8e 20bf c20f 2c3f 3586 fdbb
000000c0: 614d a23f 3674 57bd 8f9b 0f3e cf22 5b3f
000000d0: 7feb 5cbe 246f 7b3c f5fe 3a3f d4c1 e83f
000000e0: 3e14 a8be e905 b53e 5ed9 9ebf 74e2 5cbd
000000f0: 9bfd 3dbf db34 10c0 e2cc 393f 046b 0540
0.16518249 0.6229105 -0.11868119 -1.9618698 -0.24829894 -0.2599915 -1.8019667 0.3962927
-0.2740796 0.956999 0.55447763 -1.8762445 -0.2658555 -0.1742332 1.593637 1.8194866
0.15209368 -1.658332 0.5440469 1.7694125 -0.42215383 -0.67340803 0.4555746 0.3462866
-0.34500968 1.4395808 -1.0964408 1.9840953 -0.30309716 -0.6914394 0.17317039 0.26986644
0.07939853 -0.70535064 0.58501405 1.3197932 0.12977724 1.4920111 -0.7182544 0.09940405
-0.5063048 -0.3156715 -0.098973446 0.53662664 2.858931 -0.6271686 0.67211545 -0.007736946
1.2679864 -0.05260106 0.14024185 0.8559999 -0.2157421 0.015346322 0.73045284 1.8184152
-0.32827944 0.35356072 -1.2410085 -0.0539269 -0.74215096 -2.253226 0.7257825 2.0846567

input_proj.weight f4 [64, 76]
00000000: da71 a13d 8d37 eebd 8698 ea3c e52d a93d
00000010: 6655 613d 84df 5b3d c9ba d9bc b159 b13d
00000020: fa85 a7bd a0c5 cdbd 6341 29bc 48f8 c3bd
00000030: a62d 183d 5d75 fcbd 7209 cdbd f5bf 07be
00000040: 0625 d8bd ef2c 37bc 4b38 37bd 6266 3ebd
00000050: 39bf 53bc 95db c3bd 75d6 853d 523d d2bc
00000060: 0f70 493e 7aeb 3bbd 179e c7bd d4dd afbd
00000070: 8e53 c1bd d198 133b 18e8 20bd 819a 16bd
00000080: 3030 043c 94f0 8cbc 3c73 8cbd fe0a 6e3c
00000090: 8255 aabd 35aa 1ebd fec3 45bc 4d65 c4bd
000000a0: fa90 6e3d 459f f9bc 7156 49bc 8752 2ebe
000000b0: 4bb2 91bd 6532 533d fb16 393d 6e6a 17bd
000000c0: 8c93 a0bb 654b 6abd ee40 913c c61b 06be
000000d0: ec8d b1bd d01e ad3b f84c f8bc ab7e cd3d
000000e0: 437e e23d d6d5 59bd 514d 72bd 0a1e 08be
000000f0: cf7f 8f3d e9c7 cbbd 97ce dcbd 6f07 d0bd
00000100: 6451 71bd 795d 5cbc df5e b0bd 7fdd 013e
00000110: 0437 9c3c e016 233b 122f 183d f55e b03d
00000120: e797 de3d a8a2 183c 74b1 863c cc98 c33c
00000130: d4d8 b53d 0289 76bd 4ba6 b13d 55de c03d
00000140: 1f07 f23d 0175 90bd ccca 283d db4e 513d
00000150: 26cb b9bd abd9 d93d 48f1 4abe 1e42 db3c
00000160: 7255 ee3d 9ac7 66bd 2dfe da3d 2b82 a23d
00000170: 25ff a9bd f1cb abbc 9d5e e63d 3dff a9bd
00000180: 2eaf fbbb ea2e 963d 93e7 2f3d e90c eb3d
00000190: 1969 093d 70d2 00be 9707 ca3c 168c 9c3d
000001a0: f6e5 efbc 6766 0ebe 9f12 df3d a28c f73b
000001b0: 0489 b8bd 964f 1abd 0019 dbbb 7df0 8c3d
000001c0: 34d0 7c3d 08d0 cfbd 95fe 2fbd cc5d 0a3e
000001d0: 5778 733c a742 d0bc 2f78 1a3e f18d 0cbe
000001e0: 34c8 623d da7b a53d 3b2e df3d cacb 893d
000001f0: 90e5 bb3d b954 2b3c 0bf2 063e 289c 0ebd
00000200: 28c2 0e3e d647 7abd e02b 9fbb c6ca 25bd
00000210: 91fd 993d f7b4 0b3d 2684 b5bd ae73 8c3d
00000220: d9a1 36bd e9d8 9c3d 2062 bbbd 2d5b a7bd
00000230: 823d 5a3d 4a38 c53d 58c7 55bd e1f6 b0bd
00000240: da50 5a3d 7494 bfbd 74ab a9bc 7658 19bd
00000250: e858 62bd 9cd3 46bd f476 c6bd f7d3 d63d
00000260: 5bd3 f23b 44b4 af3d dbfc 22bd 61ed 573d
00000270: 256d 96bc 06a2 c8bd dedd 09bd 5af4 e2bd
00000280: d584 c1bd ea36 76bd 66e8 c63d 2caa b2bc
00000290: ab42 d63d 9e6c bf3d ff3e aabd 5b6b a1bd
000002a0: 0bdd 903b 22a5 673d 3c9f 3abd dfa6 82bd
000002b0: 9929 8a3d fb45 02bd b4e4 8e3d 0bb5 c6bd
000002c0: 8a2d 05be 227a 483d cd23 9f3d 9168 cb3d
000002d0: f8fb ed3d 2f0d 18bd 780d 3bbd 092f 823c
000002e0: ac08 b33c 5436 aa3d c639 90bd 30fd 1ebd
000002f0: bab9 99bd ec6c 57ba a18c 38bd ae3a 1bbd
00000300: fd81 eebd e7cf 633d f206 3a3d 07e6 0c3e
00000310: ad1f 04be 52ac 87bd 42b2 bcbd fa88 88bc
00000320: f0dc 1e3d 2965 a33d d790 053d 503b 83bc
00000330: c06c 22be 3bdd 213e e058 c4bb be65 15bd
00000340: 8aca b4bd 080f 8cbc 10c7 9d3d 1f7b dfbc
00000350: ef17 123e b720 7b3b 314e b13c 8032 cebd
00000360: 98b1 6fbd 0203 c33d e464 82bd ae33 db3d
00000370: 0011 2bbc 8367 c13d 314d b33d b865 33bd
00000380: 9f0d c23d 9b04 9e3d 9884 7e3c 7d4b db3d
00000390: a172 07bd 1619 643d ed0b 77bd 9fa2 28bd
000003a0: b6ab d6bd fbcc cc3d e795 63bd 2e09 44bc
000003b0: 92eb c5bd 904e d73d 345e 0d3d 9364 7dbd
000003c0: 76a3 5b3c edcd 80bd fbbe 8cbc 545d 3fbd
000003d0: 9632 80bd b4ae f6bd f095 42bd 2fe1 523b
000003e0: d8dd 14be 5013 a03d c158 ef3c a171 8bbd
000003f0: 9af3 063e 90f9 04bd ed9b 08bd 0e65 49bd
0.078830436 -0.11631689 0.028637182 0.08260707 0.055013083 0.053679958 -0.026578324 0.086596854
-0.08179851 -0.100474596 -0.010330531 -0.0956884 0.03715291 -0.12327073 -0.10011567 -0.1325682
-0.10553937 -0.011180147 -0.04473142 -0.04648436 -0.012924009 -0.09563366 0.06535045 -0.025664005
0.19671653 -0.045878865 -0.0974695 -0.08587232 -0.09439765 0.0022521506 -0.03928384 -0.03676844
0.008068129 -0.01720456 -0.06857917 0.014528988 -0.083170906 -0.03873654 -0.012070654 -0.09589634
0.05824373 -0.030471453 -0.012288676 -0.17023669 -0.07114085 0.05156173 0.04518793 -0.036966734
-0.0049004015 -0.057200808 0.017731156 -0.13096532 -0.086696476 0.005283214 -0.030310139 0.100339256
0.11059239 -0.053182445 -0.059155766 -0.13292709 0.070067994 -0.09950239 -0.107815914 -0.10157668
-0.05891551 -0.01345002 -0.08611845 0.1268215 0.019069202 0.002488546 0.037154265 0.086118616
0.10868817 0.009316124 0.016442038 0.02387657 0.08879247 -0.060189255 0.08674296 0.094174065
0.118177645 -0.07053567 0.041209027 0.051100593 -0.090719506 0.1063722 -0.19818604 0.026764926
0.11637391 -0.0563427 0.106930114 0.07934984 -0.08300618 -0.02097127 0.11248515 -0.08300636
-0.007680795 0.07333167 0.042945456 0.11477072 0.033547495 -0.12580276 0.024661822 0.07643907
-0.029284459 -0.13906251 0.108922236 0.0075546065 -0.09010509 -0.037673555 -0.00668633 0.06881807
0.061721995 -0.10147101 -0.042967398 0.13512343 0.014860234 -0.025422407 0.15084909 -0.13726021
0.05536671 0.080802634 0.1089749 0.06728323 0.09174645 0.010457211 0.1317827 -0.03481689
0.13941252 -0.061103664 -0.004857525 -0.040476583 0.07519067 0.03410813 -0.08863096 0.06858002
-0.044587944 0.0765856 -0.09149575 -0.08171687 0.053281315 0.09629877 -0.052192062 -0.086408384
0.053299762 -0.09354487 -0.020711638 -0.03743788 -0.05526057 -0.04854165 -0.09690657 0.10489648
0.0074104494 0.08579305 -0.039791923 0.052716617 -0.018362591 -0.097965285 -0.033658855 -0.110817626
-0.09449164 -0.060110964 0.09712295 -0.02180966 0.10461935 0.09346889 -0.08312797 -0.078818046
0.0044208816 0.056553967 -0.045562014 -0.063794844 0.067462154 -0.03180502 0.069772154 -0.097025
-0.13005653 0.0489446 0.077705 0.09932054 0.11620325 -0.037121948 -0.04566714 0.015891569
0.021854721 0.083111435 -0.070422694 -0.038815677 -0.07506128 -0.000821783 -0.04505599 -0.03789776
-0.11645887 0.055618193 0.04541678 0.13759623 -0.12902708 -0.06624664 -0.092136875 -0.016666878
0.03878492 0.07978279 0.032608833 -0.016019493 -0.15861797 0.15807049 -0.00599204 -0.036473982
-0.08827694 -0.017097011 0.07703984 -0.027280388 0.14266942 0.003831906 0.02164373 -0.10068226
-0.058518976 0.09522058 -0.063668996 0.107032165 -0.010441065 0.094435714 0.087549575 -0.04379818
0.09475254 0.07715722 0.0155345425 0.107077576 -0.033068303 0.055687986 -0.060314108 -0.041170713
-0.1048197 0.100000344 -0.05556288 -0.011965079 -0.09664072 0.105130315 0.034513667 -0.061863493
0.013405671 -0.06289277 -0.01718091 -0.046719864 -0.062596485 -0.12045041 -0.047506273 0.0032177677
-0.14537752 0.078161836 0.029217126 -0.06808782 0.13178864 -0.032464564 -0.033351827 -0.04916864

input_proj.bias f4 [64]
00000000: 7560 6abd 4954 75bd 305e 3c3d f792 b33c
00000010: 5d4d 903d cd71 96bd 6d5a 4ebc 29ab a33b
00000020: d1b2 b6bd f8a5 bf3c d0d4 223d a426 b03b
00000030: 6aa3 ae3d 3320 ec3b 6eb2 84bd 134d 63bd
00000040: d235 a9bc 9bec 273c e112 cebd 098f 2dbc
00000050: 35bd 113d ff38 cfbd 621e 4f3d 5bc2 b1bd
00000060: 2415 debc 8925 40bc 3643 993d d0e0 193d
00000070: 32cb 123d 2f2c dcbd 28b0 073d 7435 2d3c
00000080: 39a8 a2bd 4801 963d fe1d c4bd 62c4 08be
00000090: 7e2a e03d 9350 5cbb 3466 ca3d f269 e3bb
000000a0: 7195 d3bd db0a 5b3c 5fe9 133d fa8e c0bc
000000b0: d47a 9c3d e46e c53b 80ef 483d 537b ca3b
000000c0: 7825 c93d 477e 69bc 4ba7 c13c 6d24 8cbd
000000d0: b36d 8dbd ec5c 23bd 603f 423d c876 f5bc
000000e0: 2713 65bc c089 9b3d 8e1b b23b 68e1 84bd
000000f0: 158e 5e3c 0fff 9c3d 9102 843b b65f 8ebd
-0.057220895 -0.059894834 0.04598826 0.021920664 0.07046006 -0.073459245 -0.012594801 0.004994769
-0.08920825 0.02339457 0.039753735 0.0053757 0.085272625 0.007205987 -0.06479345 -0.055493426
-0.020655546 0.010249282 -0.100621946 -0.010593184 0.035580833 -0.10118293 0.050566085 -0.086796485
-0.02710969 -0.011727699 0.074835226 0.037567914 0.035838313 -0.10750615 0.03312698 0.010571826
-0.07942242 0.07324463 -0.09576033 -0.13356164 0.10945605 -0.0033617362 0.09882775 -0.00694012
-0.10331238 0.013369287 0.036111232 -0.023505677 0.07640615 0.006025182 0.04905653 0.006179252
0.098216 -0.014251298 0.023639342 -0.06842885 -0.06905689 -0.03988354 0.04742372 -0.029963866
-0.013981617 0.07594633 0.0054354137 -0.06488305 0.01358368 0.07665836 0.0040286263 -0.06951849

pos_embed.pe f4 [1, 128, 64]
00000000: 0000 0000 0000 803f 0000 0000 0000 803f
00000010: 0000 0000 0000 803f 0000 0000 0000 803f
00000020: 0000 0000 0000 803f 0000 0000 0000 803f
00000030: 0000 0000 0000 803f 0000 0000 0000 803f
00000040: 0000 0000 0000 803f 0000 0000 0000 803f
00000050: 0000 0000 0000 803f 0000 0000 0000 803f
00000060: 0000 0000 0000 803f 0000 0000 0000 803f
00000070: 0000 0000 0000 803f 0000 0000 0000 803f
00000080: 0000 0000 0000 803f 0000 0000 0000 803f
00000090: 0000 0000 0000 803f 0000 0000 0000 803f
000000a0: 0000 0000 0000 803f 0000 0000 0000 803f
000000b0: 0000 0000 0000 803f 0000 0000 0000 803f
000000c0: 0000 0000 0000 803f 0000 0000 0000 803f
000000d0: 0000 0000 0000 803f 0000 0000 0000 803f
000000e0: 0000 0000 0000 803f 0000 0000 0000 803f
000000f0: 0000 0000 0000 803f 0000 0000 0000 803f
00000100: a46a 573f 4151 0a3f ce7a 2e3f b054 3b3f
00000110: ba7d 083f 0d94 583f f090 d13e c792 693f
00000120: 3e39 9f3e 6b4e 733f 258f 703e f1d5 783f
00000130: 3a23 353e 83f6 7b3f f325 083e 28ba 7d3f
00000140: 7675 cc3d 98b8 7e3f 366f 993d d147 7f3f
00000150: ae36 663d 6898 7f3f faac 2c3d bdc5 7f3f
00000160: 5b81 013d 3cdf 7f3f a53e c23c 93ed 7f3f
00000170: 42ab 913c a3f5 7f3f 497a 5a3c 2cfa 7f3f
00000180: 57d6 233c b9fc 7f3f 16b9 f53b 28fe 7f3f
00000190: 5a44 b83b f7fe 7f3f 5a2e 8a3b 6bff 7f3f
000001a0: 1c3e 4f3b acff 7f3f 0369 1b3b d1ff 7f3f
000001b0: 2015 e93a e6ff 7f3f 8ac9 ae3a f1ff 7f3f
000001c0: 6d12 833a f8ff 7f3f 8994 443a fbff 7f3f
000001d0: 136a 133a fdff 7f3f 2117 dd39 ffff 7f3f
000001e0: 61cb a539 ffff 7f3f 0da8 7839 0000 803f
000001f0: 5377 3a39 0000 803f 6dd4 0b39 0000 803f
00000200: b7c7 683f 3311 d5be d95a 7f3f 534d 913d
00000210: 0af2 663f b2e8 dc3e 1135 3f3f 0339 2a3f
00000220: 1b54 173f ec7b 4e3f b5d3 e93e 69be 633f
00000230: f647 b23e a6fa 6f3f 82f0 863e f5f2 763f
00000240: f86f 4b3e a5e5 7a3f d300 193e 4f20 7d3f
00000250: 86d9 e53d f361 7e3f ae85 ac3d 0e17 7f3f
00000260: c870 813d f97c 7f3f aa30 423d 4eb6 7f3f
00000270: 5ca5 113d 8ed6 7f3f 5075 da3c b1e8 7f3f
00000280: 3ed4 a33c e5f2 7f3f 51b7 753c a1f8 7f3f
00000290: 9b43 383c dbfb 7f3f 0a2e 0a3c abfd 7f3f
000002a0: d83d cf3b b1fe 7f3f e768 9b3b 43ff 7f3f
000002b0: 0815 693b 96ff 7f3f 7fc9 2e3b c4ff 7f3f
000002c0: 6812 033b dfff 7f3f 8594 c43a edff 7f3f
000002d0: 126a 933a f5ff 7f3f 1f17 5d3a faff 7f3f
000002e0: 60cb 253a fdff 7f3f 0ca8 f839 feff 7f3f
000002f0: 5377 ba39 ffff 7f3f 6dd4 8b39 0000 803f
00000300: c381 103e 2670 7dbf de3c 473f cebf 20bf
00000310: d745 7e3f ab7f edbd 6321 743f 6318 9a3e
00000320: c209 503f 582f 153f b724 273f a2e7 413f
00000330: 6c2f 023f 296d 5c3f a768 c73e 37c9 6b3f
00000340: 6c4e 973e ef90 743f e26d 643e 928c 793f
00000350: d7ee 2b3e 9e5d 7c3f 2c33 013e 43f4 7d3f
00000360: c0ff c13d 4fd9 7e3f 0693 913d 3a5a 7f3f
00000370: 4e69 5a3d c3a2 7f3f c5d1 233d 90cb 7f3f
00000380: 1fb9 f53c 83e2 7f3f 4747 b83c 6bef 7f3f
00000390: c631 8a3c adf6 7f3f 4644 4f3c c1fa 7f3f
000003a0: 0d6e 1b3c 0dfd 7f3f 131d e93b 58fe 7f3f
000003b0: a8cf ae3b 11ff 7f3f 1317 833b 7aff 7f3f
000003c0: 929b 443b b5ff 7f3f 606f 133b d6ff 7f3f
000003d0: 171f dd3a e8ff 7f3f 56d1 a53a f3ff 7f3f
000003e0: 10b1 783a f9ff 7f3f 097e 3a3a fcff 7f3f
000003f0: 7ed9 0b3a feff 7f3f a4be d139 ffff 7f3f
0.0 1.0 0.0 1.0 0.0 1.0 0.0 1.0
0.0 1.0 0.0 1.0 0.0 1.0 0.0 1.0
0.0 1.0 0.0 1.0 0.0 1.0 0.0 1.0
0.0 1.0 0.0 1.0 0.0 1.0 0.0 1.0
0.0 1.0 0.0 1.0 0.0 1.0 0.0 1.0
0.0 1.0 0.0 1.0 0.0 1.0 0.0 1.0
0.0 1.0 0.0 1.0 0.0 1.0 0.0 1.0
0.0 1.0 0.0 1.0 0.0 1.0 0.0 1.0
0.84147096 0.54030234 0.68156135 0.731761 0.53316844 0.8460091 0.4093089 0.9123959
0.3109836 0.9504153 0.23492105 0.9720145 0.17689219 0.9842302 0.13295726 0.99112177
0.099833414 0.9950042 0.07491915 0.9971896 0.05620449 0.9984193 0.04215715 0.999111
0.031617504 0.99950004 0.023711512 0.99971884 0.017781857 0.99984187 0.013334819 0.99991107
0.009999833 0.99995 0.0074988706 0.99997187 0.0056233825 0.9999842 0.0042169513 0.9999911
0.0031622713 0.999995 0.0023713715 0.9999972 0.0017782785 0.99999845 0.001333521 0.9999991
0.0009999998 0.9999995 0.000749894 0.9999997 0.0005623411 0.9999998 0.00042169637 0.99999994
0.00031622782 0.99999994 0.00023713727 1.0 0.00017782794 1.0 0.00013335208 1.0
0.9092974 -0.41614684 0.99748 0.070948265 0.9021307 0.43146282 0.7469035 0.6649324
0.5911271 0.8065784 0.45669332 0.8896242 0.34820527 0.93741834 0.26355368 0.96464473
0.19866931 0.9800666 0.1494172 0.98877424 0.1122313 0.9936821 0.08423935 0.99644554
0.063203394 0.9980007 0.04740969 0.9988755 0.03555809 0.9993676 0.026667267 0.99964434
0.019998666 0.9998 0.014997319 0.9998875 0.011246587 0.99993676 0.008433828 0.9999644
0.006324511 0.99998003 0.00474273 0.99998873 0.0035565514 0.9999937 0.0026670394 0.9999964
0.0019999985 0.99999803 0.0014997876 0.99999887 0.0011246821 0.99999934 0.0008433926 0.99999964
0.0006324556 0.9999998 0.0004742745 0.9999999 0.00035565588 0.99999994 0.00026670416 1.0
0.14112 -0.9899925 0.7782725 -0.6279267 0.9932532 -0.11596616 0.95363444 0.3009673
0.8126489 0.58275366 0.652904 0.7574407 0.5085361 0.86104065 0.3894703 0.92103904
0.2955202 0.9553365 0.22307542 0.9748012 0.16790329 0.9858035 0.12617177 0.9920084
0.094726086 0.99550337 0.071081206 0.9974705 0.053323083 0.9985773 0.039994974 0.99919987
0.0299955 0.99955004 0.022494925 0.999747 0.016869437 0.9998577 0.012650555 0.99991995
0.009486687 0.999955 0.0071140616 0.9999747 0.005334813 0.99998575 0.0040005534 0.999992
0.0029999954 0.9999955 0.0022496805 0.9999975 0.0016870227 0.99999857 0.0012650888 0.9999992
0.00094868336 0.9999996 0.00071141176 0.99999976 0.0005334838 0.9999999 0.00040005625 0.99999994

encoder.layers.0.self_attn.W_q.weight f4 [64, 64]
00000000: 2b92 edbd fa02 c03d 2d1d 49bd e095 cabc
00000010: 74d4 653c a62a fc3d d87e 4fbd f248 cfbd
00000020: c97f c7bd 60f5 223d ec01 223e e9b0 db3c
00000030: 4514 3e3d 1482 ab3d 8be2 ce3d 1631 193d
00000040: d861 b53d 37d1 a63d 4563 cbbc c796 053e
00000050: 0685 3cbd 07b7 7d3d f574 92bd 8fbe 71bd
00000060: 0e3d 9f3d 06d7 b4bc e228 e93c 8a36 083c
00000070: 2571 e2bd a71d c5bd ab32 acbd a480 dd3d
00000080: a64d a7bd 73d7 d63d bfd3 82bd 3489 bfbb
00000090: b53f e2bd e094 b93d 97c8 9fbd cab5 adbd
000000a0: 4c9a c13d cfb9 0cbe c07b a2bc a7e4 95bb
000000b0: d6e1 823d 81fe e63c 9859 c83d 851c 04be
000000c0: be8c 37bd 20a7 b73d d3d4 9bbd e348 b13d
000000d0: 1e03 c0bd 6079 24bb 5614 003e cd94 f4bc
000000e0: 79c3 0dbd 2423 debd a2b1 653d 29a4 84bc
000000f0: c30d 7f3d 9982 973d 4776 893d fa32 eebc
00000100: 1359 123e 23a4 62bc 3ae8 3a3d c759 5a3c
00000110: 8544 2c39 8e26 18be acf7 e43d 4a7c c4bb
00000120: f765 60bd e411 643d 0b3a f63d a5f9 13bd
00000130: 5784 8dbd 75ff 82bc 8711 9d3d aac6 0a3e
00000140: c939 19bd 9952 5f3d b6b0 193d 586d 2b3c
00000150: 076f f1bd 1db5 c8bd 26ad 0bbe 0732 70bd
00000160: d682 c73d e8b7 f33d 482f d63c bd29 48bd
00000170: 5ef0 6c3d 603f 8ebd ad22 7ebc 748e 903d
00000180: f1d6 163d e513 92bd 8360 9d3d 81ea b83d
00000190: 42fb f2bd 608e d63d 4028 bf3d ecf7 cbbd
000001a0: b57d 13be 0b94 ef3d cdab d43c 9f2c 8d3d
000001b0: 0d01 a73d 360e 06be 7494 8c3d 277d 293d
000001c0: 4479 183e b352 1dbd 5857 143e 95e5 4dbd
000001d0: f2ac f2bd 2faf 95bd 4fca 9bbc 1ab8 eb3d
000001e0: 955d 273d cead 043e c986 c0bd 344f 08bd
000001f0: 4b39 90ba 0332 993c 1262 d8bd 0190 b8bc
00000200: 3135 ca3d 849d c4bd 440a 023d 86c2 93bd
00000210: f40d 08be f0ec 3abd d9c1 fbbc fc0d 0f3d
00000220: c099 b83d 63ba e53d 6785 babd 7489 0fbd
00000230: 794a 0f3e 5bb5 42bd b3c4 e93d 89de cd3c
00000240: 06ed a23d f364 b4bd d5e2 163d bc09 063e
00000250: 41b3 f93d 3bb4 7dba a70d 993d 8d3e dabc
00000260: f17e babd 53e6 8c3d 3a6e f83c 1845 903c
00000270: 34c4 aebd 7203 49bd 086b 3eba 0984 5cbc
00000280: 949c 94bd 4d55 07bd 3577 903d c699 cc3d
00000290: 853c de3a e087 a43d 8e93 aabd 5c0b aebc
000002a0: 8ca3 763d aaee ed3d 1c8c 61bd 9dc1 e83d
000002b0: 92a8 8dbd 4acb 023e d15b 9fbd de84 55bd
000002c0: 46d2 e43c 684b d83d f44a c53d 436c f43d
000002d0: f6e3 0cbe 8666 b7bd d7e0 cebd f9d1 0abd
000002e0: 0f7e 023e c6fa 57bd f070 993d 907d e6bc
000002f0: f34d 91bd b2e2 afbd 87a7 113e fc09 6abd
00000300: d97f 3f3d 75eb 95bd 5344 043d 4fa3 ee3d
00000310: 846e b2bd ed61 c13d 39d5 543d 3a97 063c
00000320: c387 5ebd cc36 ee3d 6b0e 03bd 370a cfbd
00000330: 5532 d3bc 3b9a c9bc 915e 623d ad2e aebd
00000340: f524 d5bd 596c 703b 777d 14bd ae25 c2bd
00000350: c777 02be 90cd 2f3d 6954 9a3d 1675 6a3d
00000360: c3dc 803c 61cc 8d3b 5a42 7dbd 46d2 d03d
00000370: 4e25 01be 3e9d 04bd 3988 c83c 4349 283d
00000380: dea1 cdbd 7094 cfbc 60b9 76bc a0d2 0d3e
00000390: ee2d a3bd ef77 c6bd 3d86 f9bd a683 72bd
000003a0: b0a3 48bd 91c8 3abd 1a28 a93c 1fdd a0bd
000003b0: a911 483d 9087 f83d bd6d 0f3d 2bda 933d
000003c0: fbff be3d 9b8c 6abb 8688 103e 3c4a cc3d
000003d0: d379 c2bd a8ca 953d bdf6 913d 4499 033d
000003e0: 2337 aabd 205a 223d b8a6 05bd e82d 1dbd
000003f0: f4f6 d4bc 3145 e0bc 9e4a 043c 646a d43d
-0.11600145 0.09375568 -0.04910009 -0.02472967 0.014027704 0.12312822 -0.050658077 -0.10121335
-0.0974117 0.03978479 0.15821046 0.026817756 0.04640605 0.0837442 0.101018034 0.037400328
0.08856553 0.08145373 -0.024827609 0.13045798 -0.0460253 0.061942127 -0.07151214 -0.05901962
0.07775317 -0.022075187 0.028461877 0.008313784 -0.11056737 -0.09624796 -0.08408102 0.10815552
-0.08169107 0.104903124 -0.063880436 -0.0058452133 -0.110473074 0.09061599 -0.07801931 -0.08481939
0.09453258 -0.13742755 -0.0198344 -0.0045743766 0.06390731 0.028197529 0.09782714 -0.12901504
-0.044811957 0.089674234 -0.076089524 0.0865648 -0.093755946 -0.002509676 0.12507758 -0.02985611
-0.034610245 -0.10846546 0.056077607 -0.016191559 0.062268984 0.073979564 0.06712013 -0.029077042
0.14291792 -0.013833079 0.045631625 0.013327069 0.00016428724 -0.14858457 0.11180052 -0.0059962617
-0.05478474 0.055681124 0.120227896 -0.03612675 -0.069100074 -0.015990952 0.07669359 0.13552347
-0.037408624 0.05452213 0.03752204 0.010463081 -0.11788755 -0.098001696 -0.1364027 -0.05864146
0.09741752 0.11900312 0.026145592 -0.04886793 0.05784642 -0.069456816 -0.015511197 0.07058421
0.036826078 -0.07132701 0.07684424 0.09029103 -0.1186433 0.104763746 0.09333849 -0.09959397
-0.14403422 0.11698159 0.025960827 0.068932764 0.08154497 -0.13091359 0.06864253 0.04137912
0.14890009 -0.038408946 0.14486444 -0.050267775 -0.11849393 -0.07308804 -0.019017367 0.11509724
0.04086073 0.12956926 -0.09400708 -0.03327866 -0.0011003403 0.018700605 -0.105655804 -0.022529604
0.09873427 -0.09600356 0.03174807 -0.07214837 -0.13286573 -0.045636117 -0.030732082 0.034925446
0.090137005 0.11217191 -0.09107476 -0.035043195 0.13993253 -0.047536235 0.114144705 0.025130527
0.07955365 -0.08808317 0.036837418 0.13089651 0.12192393 -0.00096780405 0.07473307 -0.026641155
-0.091062434 0.06879868 0.030325998 0.017611071 -0.085335165 -0.04907555 -0.00072638737 -0.013459214
-0.072564274 -0.033040334 0.07053987 0.099902675 0.0016955292 0.080337286 -0.08328925 -0.021245651
0.060214564 0.11617787 -0.05506526 0.11365054 -0.06916918 0.12772861 -0.077811845 -0.052128665
0.027932297 0.105612576 0.09633437 0.11934712 -0.13758835 -0.08955102 -0.101014785 -0.03389165
0.127434 -0.05272939 0.07492244 -0.028136045 -0.07094946 -0.085881606 0.14224063 -0.057138428
0.046752784 -0.073203005 0.03229172 0.116522424 -0.087124854 0.09442506 0.051961157 0.008214766
-0.05432869 0.116315454 -0.031996172 -0.1010937 -0.025780836 -0.024609676 0.055265967 -0.085049964
-0.104074396 0.0036685674 -0.036252465 -0.09479843 -0.12741004 0.04292065 0.07535631 0.057240568
0.015730267 0.0043273424 -0.061830856 0.101963565 -0.12611887 -0.03237652 0.024479019 0.041085493
-0.10040639 -0.025339335 -0.015058845 0.13849878 -0.07967745 -0.09690844 -0.12183807 -0.05920758
-0.04898423 -0.04560143 0.020649005 -0.078546755 0.048844967 0.121352315 0.035016764 0.072193466
0.09326168 -0.0035789374 0.1411458 0.099750966 -0.094958924 0.07314044 0.0712714 0.032128587
-0.08311298 0.03963673 -0.0326297 -0.038373858 -0.025996663 -0.027376743 0.008074431 0.10371855

encoder.layers.0.self_attn.W_q.bias f4 [64]
00000000: 0b8c 4e3d cf01 dabd a8a3 a73d 66c2 833b
00000010: 4d37 a63c 2162 3dbd bc9d b7bd af8a d0bd
00000020: d58c 3dbd 9efc c5bc 5359 383c 72b7 a6bd
00000030: 7eff 78bd f118 db3d 4cfa 603d 2f14 473d
00000040: f390 2cbe d34f 6ebd 6c87 fbbd ce6e 61bc
00000050: f186 9bbd dcb3 4e3d 0183 0abe 017a 963b
00000060: 0e18 c73d a78e 8c3d 6bef 01bc 2d8a a63d
00000070: 958c 5abd 050b 683d a969 993d 4ddd babd
00000080: 78b7 38bd f502 b5bd 76b0 bdbd 92fa 933c
00000090: d3f4 5bbd 5800 823d 3702 bbbc 0a11 943d
000000a0: 58fe e43d b6be b4bd 2116 ddbd d841 95bd
000000b0: de60 b5bd 0d3d a53d 8447 b9bd 2f89 d43d
000000c0: d536 b0b9 9364 f6bb 191b a6bd eee0 153d
000000d0: aff1 2fbc a179 1fbc 1b01 fe3d b1c7 a23d
000000e0: 55dd a9bd 80b4 693d 00b4 e8bc bbe0 01be
000000f0: a40e 6b3d 01f7 0abd b793 f7bd 599f aabd
0.050426524 -0.10644876 0.08185512 0.004020977 0.020290041 -0.04623616 -0.08965632 -0.10182702
-0.046276886 -0.024168309 0.011251765 -0.08140458 -0.06079053 0.106981166 0.0549262 0.048603233
-0.16852169 -0.058181595 -0.12281689 -0.013759328 -0.075940974 0.050464496 -0.13526537 0.0045921807
0.09721385 0.06863146 -0.007930617 0.08131824 -0.053356726 0.056651134 0.07490856 -0.09124241
-0.045096844 -0.08838455 -0.09262173 0.018063817 -0.05370028 0.06347722 -0.022828205 0.072298124
0.11181325 -0.08825438 -0.107952364 -0.07287949 -0.088563666 0.08068285 -0.09046844 0.10377728
-0.0003361019 -0.0075193136 -0.08110637 0.036591463 -0.010738774 -0.009733588 0.124025546 0.07948244
-0.08294169 0.057056904 -0.028406143 -0.12683384 0.05738701 -0.033926968 -0.12088721 -0.083311744

encoder.layers.0.self_attn.W_k.weight f4 [64, 64]
00000000: d5ad f5bb 09e1 85bd 58ec 9f3d 9ed3 04be
00000010: 109a b43c 1358 74bd 1be2 183d 9478 96bd
00000020: 5a99 d0bd c560 933d c9fc e2bb 11b0 dd3d
00000030: 2282 903c 1340 0c3e 0a52 d8bb 3410 0d3e
00000040: e3d3 413d 3d8c c8bd c89e 5c3d 2e1a ea3d
00000050: 7f17 57bd fc71 7c3b 06ce 41bd 8de8 f63d
00000060: 43da ec3d 68cf 06bd 6a2d 17bd 4a05 c63d
00000070: d07f d63d a675 0e3e 4867 5cbd c059 303d
00000080: 0efd c3bd 6f48 aa3d 4e41 aa3c 35e0 5c3d
00000090: d742 c93c bb86 013e be1b dabd 916c 5cbd
000000a0: aa24 7c3d dc93 e4bd 3e51 843d b4a0 453d
000000b0: 5407 f9bd 4831 77bd b928 fdbd fcdd bb37
000000c0: 2157 5bbc 818e 173d 1a98 06be b7a3 a33c
000000d0: 6721 0fbd 72bd ebbd ed62 9c3d b589 babc
000000e0: 8f8a 14bc 2d2a ac3c 4d95 d43d 3953 08be
000000f0: bc0d a23c d676 38bd b922 af3d 484e fe3c
00000100: 1546 bc3d 0e94 7a3b 80b5 5f3d 2740 913d
00000110: d9e1 293d 39c1 7bbd f0e7 9ebd ef7b 993d
00000120: 3240 de3d 7c45 4bbc 11e7 d53d 6f32 9e3d
00000130: 6814 f4bc b812 cf3d de1e e13c 6edd aebd
00000140: 2c1c 1dbd 8eb7 48bd a549 4f3d 5026 cd3c
00000150: 388e c3bd e4c3 e6bd 16fe 663d 266a 4abb
00000160: 8555 ec3d feea 6abd f9df a3bd 26a2 8e3c
00000170: cd68 0e3e 34ad 30bd 0b96 45bd 3916 723d
00000180: 42d1 acbd 7986 b6bd cb83 55bd 7319 053d
00000190: 7309 103c 7612 38bd 4e04 113e 0aad bfbd
000001a0: eee6 ad3d fcf3 d33d 69f6 ee3d 6856 dabd
000001b0: 23e8 7e3d d0a8 aabd 8efa 3a3c f793 5dbd
000001c0: 2d5a 51bd 9e28 9abd 9c34 0bbd f83d acbd
000001d0: 27d5 a13d 7cc5 9b3d 6414 57bc 46da ce3d
000001e0: ae8b afbd 68c6 c5bc c720 c73b 5ce0 08be
000001f0: 91ab 13bd ee70 243d 3b97 313d b792 12be
00000200: f263 f9bc 77c2 debd 22e8 8c3d e572 19be
00000210: c867 b5bd 1895 1cbd 907e c8bc 124b a4bc
00000220: 5c70 67bc f30e f9bb 20eb 7fbc 3db1 19bc
00000230: 4a29 aa3c fe73 a2bd 7fd4 c03d 9eb8 8c3d
00000240: 566f 86bd 2039 543d 194c d0bd 3f3e fb3d
00000250: 5145 323d 9d01 403c 3224 7fbd f173 97bd
00000260: 0e90 cabd 95bc 89bd 84de 9abc d39c b43d
00000270: c77b 9d3d e3a7 2abd 8722 64ba 63c1 bf3c
00000280: d940 373b af36 bc3d dcdd 623d d6ab 06bd
00000290: b62a cfbd 3278 563c 2402 ca3d e59c e9bc
000002a0: a78c 7dbd cc0c 183d 33b7 453d c6f9 aebd
000002b0: c3e0 1d3d 32ea babd 9894 9dbd 96ae 78bd
000002c0: d489 edbd e096 263d 1b3c 6abd 3e8d 3ebd
000002d0: 6d18 b7bd 68d4 973d 12f2 963d 880c a2bd
000002e0: 83f1 843b 6c1f 8abc 5cde 67bc cb1d ccbd
000002f0: a0c4 cd3d b3e6 c3bd e775 a93d 9a0b 463d
00000300: 49c9 43bd 0d25 46bc ab12 47bd 473c 06be
00000310: 5738 8abd 7f33 ea3d 8641 85bd 7411 10be
00000320: 965f ebbd 676f e8bd 0d38 e9bc c54c a1bd
00000330: bc76 64bd 6ed9 bcbc 158c bf3d 1253 193d
00000340: 0317 9ebd 411b 983d 66d1 1dbe 46de a9bd
00000350: 2134 27bd 6700 dfbc b1db ab3c 0dc0 a3bd
00000360: bd13 d1bd 8b6e 9c3d 9af8 e5bc 72b4 1abd
00000370: e833 0f3e d58c 10bd 5475 d3bd 7a68 cf3d
00000380: 4ac1 493c 7d0a 923d 8338 c0bd f1a0 12bd
00000390: dccc 7bbd 70f8 d5bd 5d43 a1bd fd0c 91bc
000003a0: 75ca 033e 0588 dc3d e4d0 b93d 3a2c c8bd
000003b0: e06f fbbd 3d07 083d 39ef 0dbd 657a d13d
000003c0: c4ce b3bd 1987 a4bd 3b56 11be dcea 94bd
000003d0: 6302 ffbd a827 533d affc b1bd 5b8a d1ba
000003e0: e28f b5bc e92b 9fbd 9c3d a43d 3292 07bd
000003f0: 0879 dabd b442 b23d 1c55 ff3d 3154 a33d
-0.007497529 -0.06537063 0.07808751 -0.1297135 0.022046119 -0.059654307 0.037325006 -0.07347217
-0.101854995 0.07196192 -0.006927107 0.108245976 0.017640177 0.13696317 -0.0066015767 0.13775712
0.04732121 -0.09792373 0.053862363 0.11430775 -0.052512642 0.0038520088 -0.04731562 0.12056074
0.115650676 -0.03291264 -0.036908545 0.096689776 0.10473597 0.13912067 -0.053809434 0.043054342
-0.09569751 0.08314597 0.020783093 0.053924758 0.024568005 0.12649052 -0.10649823 -0.053814474
0.061558403 -0.111610144 0.06460808 0.04824896 -0.12159601 -0.060349733 -0.12361283 2.2395507e-05
-0.013387472 0.037001137 -0.1314396 0.019975526 -0.034943964 -0.11510743 0.07636056 -0.022770742
-0.009066238 0.021016205 0.10380039 -0.13312997 0.01978194 -0.045035206 0.08551545 0.031043187
0.091930546 0.003823522 0.05461645 0.07092314 0.04147515 -0.06146357 -0.07759082 0.074943416
0.10852088 -0.012406703 0.10444463 0.07724463 -0.029794887 0.10110992 0.027480539 -0.08538328
-0.038356945 -0.049003176 0.050607342 0.025042683 -0.095486104 -0.11267832 0.05639466 -0.0030886023
0.11539749 -0.057353012 -0.08001704 0.017411303 0.13907166 -0.04313393 -0.048238795 0.059103224
-0.0843835 -0.089123674 -0.05212764 0.032494973 0.008791315 -0.04493948 0.14161798 -0.093591765
0.08491312 0.10349271 0.11668093 -0.10661012 0.0622331 -0.0833298 0.011412276 -0.05409619
-0.05111139 -0.07527278 -0.03398572 -0.08410257 0.07901984 0.076060265 -0.01312742 0.10100226
-0.08571564 -0.024142459 0.0060769054 -0.13366836 -0.03605229 0.04014676 0.043357115 -0.1431378
-0.030443165 -0.10876935 0.06880213 -0.14985235 -0.08857685 -0.038228124 -0.024474412 -0.020055328
-0.01412591 -0.007600659 -0.015620023 -0.009380636 0.020771641 -0.0793228 0.094155304 0.068711504
-0.065642044 0.05181229 -0.101707645 0.12267732 0.043523137 0.011719135 -0.062290378 -0.07395161
-0.098907575 -0.06725422 -0.018904932 0.08818974 0.07689624 -0.041664016 -0.0008702655 0.023407644
0.0027962236 0.091901176 0.055387363 -0.03287872 -0.10115568 0.01309018 0.098636895 -0.028517196
-0.061901715 0.03712158 0.048270416 -0.08543734 0.038544428 -0.091267005 -0.07694358 -0.060713373
-0.11598554 0.04067123 -0.057186227 -0.046521418 -0.08940206 0.0741356 0.0737039 -0.079125464
0.0040571108 -0.016860686 -0.014152136 -0.0996662 0.10047269 -0.09565487 0.08274441 0.048350908
-0.047799382 -0.0120937945 -0.048601788 -0.13108931 -0.06749027 0.11435603 -0.06506638 -0.14069158
-0.11492841 -0.11349373 -0.02846911 -0.07875971 -0.055777296 -0.023052897 0.093528904 0.037432738
-0.07719233 0.07427073 -0.1541191 -0.082943484 -0.0408212 -0.027221872 0.02097878 -0.07995615
-0.10208843 0.07638272 -0.028072644 -0.037769742 0.13984644 -0.035290558 -0.10325113 0.10127349
0.01231415 0.07130907 -0.09385779 -0.035798017 -0.061474666 -0.10447776 -0.07874177 -0.017706389
0.128702 0.10768131 0.09073046 -0.097740605 -0.12277198 0.033210028 -0.03465197 0.10228423
-0.08779672 -0.0803358 -0.1419305 -0.07271358 -0.12451627 0.05155149 -0.08690774 -0.0015986668
-0.022163335 -0.07772047 0.080195636 -0.033098407 -0.10667616 0.08704129 0.12467405 0.079750426

encoder.layers.0.self_attn.W_k.bias f4 [64]
00000000: ffb3 b03d c0b4 423d 2198 49bc 44b5 b8bd
00000010: fa4d d0bd fb2d 93bd 62fb 943d b7db 5fbc
00000020: 5905 4abc 72f4 7ebd 37da d4bd 24f3 593c
00000030: e799 8dbd 42f4 c73c e8e1 c63d 845d d53d
00000040: b681 c73d bf2c 053d 8010 85bd 61c6 bcbd
00000050: 930e b53d a957 f43d a95c 96bd 812e a1bd
00000060: f5ea b83d 61e1 273d c8a5 a9bd 1002 723d
00000070: 14d7 2c3c 890b afbd b8b6 dd3d 7a0c 923d
00000080: cc13 d23c 778d d13d 19e2 c7bd d503 88bd
00000090: 9dba e23b 5073 823d 8d8f 5f3c fb51 36bc
000000a0: 090f 263c 006e f33c 012c b7bd 84dc f8bd
000000b0: eff0 dd3d 517d fc3d 608f 97bc 3557 7abd
000000c0: 76bf a8bc a085 eebd 1a2f 943d c343 74bc
000000d0: 013e ea37 7579 f6bd 054d 583d 2934 c4bc
000000e0: 42e9 5e3d d637 a9bd 5040 dcbd a6c4 1bbd
000000f0: 40bc 97bd 6588 e8bd 39c8 4e3c 2b00 783d
0.086280815 0.047535658 -0.012304337 -0.09018949 -0.10171123 -0.071865045 0.0727451 -0.013663224
-0.012330377 -0.06224484 -0.10393184 0.013302598 -0.0691412 0.024408463 0.09711057 0.10418227
0.09741537 0.032513376 -0.06497288 -0.09217525 0.088406704 0.11930782 -0.07341892 -0.07870198
0.090291895 0.040986422 -0.082835734 0.059084 0.0105493255 -0.08547122 0.108258665 0.07131286
0.025644206 0.102320604 -0.097599216 -0.06641356 0.0069192187 0.0636965 0.013645065 -0.011127944
0.010135421 0.029715538 -0.0894394 -0.12151435 0.1083697 0.1232859 -0.018500984 -0.061118323
-0.020599108 -0.11646581 0.072355464 -0.014908734 2.7923847e-05 -0.12034885 0.052807827 -0.023950653
0.05442167 -0.08262603 -0.10754454 -0.038029335 -0.07408953 -0.1135414 0.012620979 0.060547035

encoder.layers.0.self_attn.W_v.weight f4 [64, 64]
00000000: 5e3b b23c a3ef f7bc b57e 77bd f804 f5bd
00000010: f4ed d33d 820c 8c3d d996 ddbd 6a50 a6bd
00000020: 9024 14be 85ea 353d f1f7 07be e517 a13d
00000030: 1008 21bd ec85 083a 439c 12bb 0255 733d
00000040: f653 e63d 30a6 8e3d d482 e5bd eee1 4cbc
00000050: ad1e 1abc 2118 823c eff4 9a3b 618c 82bd
00000060: bc41 923d 09e1 cfbc 8e6e f23d 5d59 c1bc
00000070: 22f3 86bd 0b2c 883c 1193 cb3d 477c b83d
00000080: 6bd0 5cbd a383 ce3d ad42 c63d a816 4fba
00000090: 49ae 1cbd 2a63 cd3d 8f63 773d 3c00 29bc
000000a0: 5615 373d 0802 f23c 5b31 95bd fa8d b0bd
000000b0: a816 553d 400f 233c 3dc7 3c3d 04e4 22bd
000000c0: af84 b73b 0fbb e63c 095e a4bd 77fc 923d
000000d0: 9b97 10be 274f aa3d 3cc3 05be 5d86 e5bd
000000e0: 2caa da3d 2e94 13bd b5c9 043d 7d2c b1bd
000000f0: 3f57 a93b f3bb 8dbd 54f3 e43c 42eb 0d3a
00000100: de30 b0bc 1faf aa3d ca84 3f39 a870 88ba
00000110: 7d74 693d fce0 acbd 054a b7bc c49d ec3c
00000120: 52cf 42bc 5ffa 053e fc98 cbbc 39ef 243d
00000130: b6af b2bc be2a 853c d971 be3d 0ab2 623c
00000140: 5a2a 6ebd 42c6 97bb 4b1a 9b3d e962 e8bd
00000150: 59c0 d83d d611 2dbc 0d91 c03d c3fd 5c3c
00000160: c5ae 283d 774d d5bd e5e2 e3bd 3386 8d3d
00000170: 8221 333d 0fa0 b3bd 557e 56bd 0687 d73d
00000180: 7e47 033e 1572 a93d 2ca5 8bbc 4a98 ce3d
00000190: c0c9 b1bd f0a5 04bc d085 cebd 3e53 50bc
000001a0: 8ad9 9cbd daed b33c 5795 9b3d f014 abbb
000001b0: 2312 993d de7b c13c e43b 84bc 5ebd d83d
000001c0: d250 4ebd cf09 1b3d 5d67 bc3d 31a9 4cbd
000001d0: 5fb8 f53b 86e3 a9bd 0ce0 10bd eaf2 5b3c
000001e0: 2965 40bd b7d0 623d 40b8 f2bd ffc6 bdbd
000001f0: 7b35 ba3d d6f9 f7bd 7e91 063e 8106 efbd
00000200: 0ccf 9dbd d67f 1fbd 8487 833d b215 bcbd
00000210: 828c 2bbd 72e7 85bd fafc 85bc 9bac 49bd
00000220: cbd0 3f3d 5871 dabd 3b40 cbbd 198a 8b3d
00000230: e719 b43d 9d96 edbd 52fc e03c 72d4 87bc
00000240: c7e9 383d 8749 ff3c f14d 543d ff19 38bd
00000250: 387f 16bc b629 15bd 639b 51bd 386d 1dbe
00000260: f2e8 d0bd 1f4f 60bd e875 c7bc 0300 a93d
00000270: d815 013d 7ab9 8e3d bea2 00bd 44f2 563d
00000280: f0bc b3bc 2f7e 43bd 48c2 bd3d 1c68 253c
00000290: 8855 bd3d ff0b ebbd 4b19 cd3c d2bb b83d
000002a0: 7a3f 1fbd 4472 cc3d 5080 17bc d07e 193d
000002b0: 77d7 963c 682b e4bd 4116 77bd 65ed d73b
000002c0: 240d 963d 2de8 d23d 80dd 3e3d 6a39 d2bd
000002d0: 7d87 c73d 49d4 e33c 5abf 00be 1ff3 34bd
000002e0: 32b3 5dbd 153a d33d 01da d0bd 6244 abbd
000002f0: d371 febd 6ae9 c0bd 65c8 ee3c 887d 71bd
00000300: 2c66 d83c 6a25 63bd 4eea 653b 8e96 87bd
00000310: ca23 3f3b 0433 c6bc 7d48 ab3c 3f1c b2bc
00000320: 659f 943c 20f7 b3bd d747 8f3d 43a0 af3c
00000330: 772d 98bc dd69 c33d e720 1bbc d6ff 1a3d
00000340: 2224 f8bd a8f4 7ebd 6e4d e5bd c99b a1bd
00000350: 86a5 4b3d 715c 18be 76c8 ce3c 342b e1bd
00000360: a872 393d 47e6 b4bd c149 9f3d c8f9 d9bd
00000370: 3982 7f3d ffb2 febd 140f 05be 6ff9 78bb
00000380: 3c1e 053e 76a7 07be 3461 ffbc 7852 4c3c
00000390: 6eb0 ee3d 94e5 d7bd 6076 173d 721b 12bb
000003a0: 43e0 85bd 149b a93d ed60 b93d 73eb 173d
000003b0: 8001 e73d b5ae 1fbd afc5 91bc 4cbc 5dbd
000003c0: 5dbd 783d 3d33 473c 8f7f bbbd f67d e7bd
000003d0: d751 64bd 9551 893c 0439 c53a 6db6 b93d
000003e0: 7d19 ba3d a71a 0c3d 4fe0 8abd 961d 483c
000003f0: 3fee 893c 847d bbbc 7264 9ebd b803 f5bc
0.021756824 -0.030265635 -0.06042357 -0.11963838 0.1034812 0.06838323 -0.108197875 -0.081208065
-0.14467072 0.04441311 -0.13278176 0.07865886 -0.03931433 0.0005207944 -0.0022370971 0.05940724
0.11246483 0.069652915 -0.11206594 -0.012505038 -0.009406728 0.015880646 0.0047289054 -0.063744314
0.07141444 -0.02537586 0.11837493 -0.023602182 -0.06589343 0.016622564 0.0994016 0.09008079
-0.0539097 0.100837015 0.09680686 -0.00078997994 -0.03825215 0.1002868 0.06039768 -0.010314997
0.044698082 0.029541984 -0.072848044 -0.0862083 0.05202356 0.009952366 0.046088446 -0.039768234
0.005600534 0.028165368 -0.08025748 0.0717706 -0.14120333 0.08315878 -0.13062757 -0.112072684
0.10676989 -0.036029987 0.032418925 -0.086510636 0.0051678712 -0.06920614 0.02794806 0.0005413779
-0.021507677 0.08334183 0.00018264647 -0.0010409551 0.056995858 -0.0844135 -0.022374162 0.028883822
-0.011890249 0.1308379 -0.024853222 0.040267203 -0.021812301 0.016255733 0.092990585 0.013836393
-0.05814586 -0.0046317885 0.07573374 -0.113469906 0.105835624 -0.010563334 0.09402666 0.013488236
0.0411823 -0.10415166 -0.11127261 0.06910362 0.043733127 -0.08770763 -0.052366573 0.105238006
0.12820241 0.082737125 -0.017046534 0.100876406 -0.08681059 -0.008096203 -0.100841165 -0.012715159
-0.0765868 0.021964002 0.07596844 -0.005221002 0.074741624 0.023618635 -0.01614184 0.10582994
-0.050370045 0.03785115 0.091994025 -0.04996604 0.0074987854 -0.0829535 -0.035369918 0.013424614
-0.046971474 0.055374827 -0.11851549 -0.09266471 0.09092232 -0.12108199 0.13141438 -0.116711624
-0.07705507 -0.038940273 0.06422332 -0.091838256 -0.041882046 -0.06538285 -0.01635598 -0.049236875
0.04682998 -0.1066615 -0.0992436 0.068134494 0.08794003 -0.11600993 0.027464066 -0.016580794
0.045144822 0.03116299 0.051832143 -0.044946667 -0.009185605 -0.03641673 -0.05117358 -0.15373695
-0.10200681 -0.054762956 -0.024348214 0.08251955 0.031514972 0.069689706 -0.031405203 0.052477136
-0.021940678 -0.04772776 0.09265572 0.010095622 0.092448294 -0.114768974 0.025036475 0.09020199
-0.038878895 0.09982732 -0.009246901 0.037474453 0.018413289 -0.111410916 -0.060323957 0.006589579
0.07326725 0.1029819 0.046597958 -0.10264857 0.09742639 0.027811186 -0.12572995 -0.04417717
-0.054125972 0.10313813 -0.10197831 -0.08362652 -0.12424054 -0.0941952 0.02914829 -0.058957607
0.026415907 -0.055455603 0.0035082283 -0.06620513 0.002916562 -0.024194248 0.020908589 -0.021741984
0.018142411 -0.0878737 0.06996124 0.021438723 -0.018576367 0.09541676 -0.009468294 0.03784164
-0.12116267 -0.06224504 -0.11196409 -0.07891042 0.049718402 -0.14879014 0.025242072 -0.109945685
0.04527536 -0.088329844 0.07777739 -0.10643345 0.06238005 -0.124364845 -0.12994033 -0.003799047
0.12999815 -0.13247475 -0.03117428 0.012470834 0.11654745 -0.105418354 0.036978126 -0.002229419
-0.06536915 0.08281532 0.0905169 0.037089776 0.11279583 -0.038984973 -0.017794458 -0.054134652
0.060727466 0.012158212 -0.09155189 -0.11303322 -0.05574211 0.016762534 0.0015046899 0.09067998
0.09086893 0.034205105 -0.06781065 0.012214085 0.016837237 -0.022886999 -0.07734002 -0.029909

encoder.layers.0.self_attn.W_v.bias f4 [64]
00000000: 7c46 ec3d f6e5 e9bd 0a8b b63c 5d2a c23b
00000010: e9a5 d7bc b487 453c 14d3 5cbd 10d5 233c
00000020: 7200 2fbb d0bd f5bd b025 ebbc b3fc 853c
00000030: f942 b43d 7080 e8bd 53ac f9bc 4ed2 b2bd
00000040: 2d3f e63d b597 11bd 1bd8 8bbc 8f75 65bd
00000050: 500d eb3c 6fc5 0fbc be5a e3bd 73af d23d
00000060: db48 e9bd a7ec bc3d a105 9dbd eedf 553c
00000070: 400e c63d 87e8 3b3d 6a5e 3e3d 8222 953d
00000080: ed47 223d 8d25 b8bc 6d91 8e3d 11cd 6abd
00000090: c10a b83d 233b 8a3c 0a7e 65bd 259e d73c
000000a0: 50e7 dabd 011e 003e 24dc bf3d 1f3a 593d
000000b0: 8a28 fc3c ed7d b1bd dcf9 d5bd 4c7b d93d
000000c0: 6bdd 10bd 2ae5 223d e1a1 993c 63b6 f9bd
000000d0: 5b04 e7bd 44b7 82bd 6342 c7bd b644 0dbd
000000e0: f38c ce3d a81f ca3c 776e 853d 3fbd 27bd
000000f0: 1723 a33d 61a0 e0bc 3bc6 5f3d 43be 5abc
0.11536881 -0.11420815 0.022283096 0.0059254603 -0.02632423 0.01205628 -0.053912237 0.0099995285
-0.0026703146 -0.119990945 -0.028704494 0.016355848 0.088018365 -0.113526225 -0.030477678 -0.08731519
0.112425186 -0.03554507 -0.01707082 -0.056020316 0.028692871 -0.008775099 -0.11101292 0.102873705
-0.11390849 0.09224825 -0.07667089 0.013053877 0.09670687 0.045876052 0.04647676 0.072819725
0.039619375 -0.022478843 0.069613315 -0.057324473 0.08986426 0.016873902 -0.056028403 0.026320526
-0.106886506 0.12511446 0.0936816 0.053033944 0.03078105 -0.086665966 -0.104480475 0.1061922
-0.03536741 0.03976933 0.018753948 -0.12192991 -0.112801276 -0.063826114 -0.09729459 -0.034489356
0.10085478 0.024673298 0.0651521 -0.040951964 0.07965677 -0.027420225 0.054632407 -0.013351026

encoder.layers.0.self_attn.W_o.weight f4 [64, 64]
00000000: 23ab a0bd db17 bd3c eaaf 94bc 3aa5 04bd
00000010: 2584 00be 680b 963c ec8a 78bc df73 b6bd
00000020: ee12 8bbd f70c 2e3d 3866 a83d aef1 e2bd
00000030: ae62 f0bd 7ce1 cbbc 37a7 e83d a9f7 91bd
00000040: b0a7 d6bd 2708 e23d 2ac0 983d 3272 2cbd
00000050: 93b6 a9bd 55f8 9abb 5c66 32bd e5c4 c5bd
00000060: 285b 5bbd bc9d 4c3d 90ea 2a3d f66a 2cbd
00000070: 4a60 573d fde3 4e3d ac57 c3bd c30a 72bd
00000080: e971 d2bc 86de 533d 8029 e53b d9aa 0bbc
00000090: 7e10 463d fad7 aabc 49ac 4a3c 968b 50bd
000000a0: f9d1 47bc 9f58 8c3d 7af1 8d3c 272a db3d
000000b0: efa3 e2bd a36d d43d 6497 9f3d a402 593d
000000c0: 5767 76bd f64d d93c 03cc 14bd 0c43 cebd
000000d0: dddf c73d b131 ee3c fd8c b1bd 9c5c eebb
000000e0: 2627 d5bd ea95 8cbd 62b1 063d a7a8 163d
000000f0: eef5 023d 60ad cabd 9094 ffbd 0c6d 7ebc
00000100: 5e42 fc3b 5acb bd3d 6d28 2abd c76a dc3c
00000110: f974 853d e312 a3bd 729f b13d b957 7dbc
00000120: b90a 7a3d aafe 3a3d 6e42 a0bd e894 b8bd
00000130: 9bfb bf3d 2c07 643d 7b6d f1bd d87d 9ebd
00000140: c081 3b3d 4340 5cbb 54ee 303e 5a06 e1bd
00000150: 3564 adbd aed2 7a3d 49fb 85bd 94c7 02bd
00000160: 96e8 4dbd 991a 553b 0e4e 7f3b 999d f93d
00000170: 3888 dd3c 4170 013c d573 b2bc dc5a 9f3d
00000180: 8368 3c3d 1d60 a1bc b15f 9bbd cc2f c23d
00000190: 8fc3 fbbc 2e9f cf3d 7db6 f2bd 6998 6d3d
000001a0: f2b1 99bd 8a9f d23a 53d5 98bc 58f9 8abd
000001b0: 1b6e a1bd a577 07be b6e5 c9bd becb a03b
000001c0: 7d68 ddbd 6f9d dcbc 3814 183e 2dbb 42bd
000001d0: 09a0 123d 4f89 1d3c 5111 82bd 5c7b b6bd
000001e0: b380 e53d 11e6 1e3b cc8d 1fbd ccfe 0bbe
000001f0: a830 a93d eee9 ab3d c8be 603d 7da3 543d
00000200: e766 e93c 08a5 4dbd 2ead 08be 5fd1 bd3d
00000210: b5c2 bc3d e1c3 bdbd f190 cfbd d575 803d
00000220: 5629 07bb 312e 893d eaa7 80bd 7885 f3bd
00000230: 022c a2bd f046 3bba 4b5b eb3d a96d d1bd
00000240: 295f 583d 4faf adbd 5e54 28be feba 84ba
00000250: 6d94 9cbd 7514 833d 5983 23bd b353 033e
00000260: 3b79 64bc b428 13be 6a8c c0bd e0ad debd
00000270: 9bd6 edbd 471b 113c 0ffe 853c 9dde e2bd
00000280: ffe4 bebc 2fec 3dbd 1281 9ebc 9cf4 91bc
00000290: 1324 4e3d d836 6cbd c2b3 9b3d 8d50 c33d
000002a0: 2638 95bc 2d2a 203d 8c6b 5bb9 67c7 a93d
000002b0: b086 96bd dc34 c5bd 8dd1 95bd 322b e6bd
000002c0: 3a64 1c3b 6e37 d73d aba8 96bc d960 a7bc
000002d0: cead a13d 5976 e0bd 3856 d63c ed71 abbd
000002e0: d8d2 01be ba41 033d cf46 9bbd 8e12 103d
000002f0: 834b 9d3c 0dbb 14bd a30a 19bd 7324 bcbd
00000300: 8ef5 e93d 69ee c23d 42f8 b4bd 574c 8eba
00000310: 1578 d9bd b31f 0a3d ce83 d63d 455a ad3d
00000320: 9017 f23d 9992 ebbd 8f46 2c3d 26c2 5abb
00000330: 1904 a8bc 163d b2bd 5ef9 253d 92b6 b6bd
00000340: 4d17 ec3d 38ae 9bbd ed11 b73d c9fb 4c3c
00000350: d701 0bbd ef20 053e 7796 0cbe 4cd9 d33d
00000360: 168e cbbd c58c af3d a19e f43c 91cb 8abb
00000370: e867 a03d 5ef0 dc3d fa03 3e3d 0286 543d
00000380: 6ac0 173d 837c 0f3d c3bd b4bc 1db5 aa3d
00000390: 5d11 c53d 039b e2bd 90cd be3c db83 23bd
000003a0: f683 dc3c a5b9 ad3d 1062 5b3c bc82 f3bc
000003b0: 6129 973a e661 093e 831e cbbd 60da 24bd
000003c0: 210d 51bd d4a9 d63d a637 a73d 3e6d ef3c
000003d0: 5f2c aa3d e92d b03d f543 013e e6fa babd
000003e0: ebe9 67bd 174c 03bd 4e43 dcbd a076 a0ba
000003f0: 7f26 bf3d 2de1 813d f108 0cbe b550 06be
-0.07845142 0.023082664 -0.018150289 -0.032384135 -0.12550409 0.018315986 -0.01516984 -0.089088194
-0.0679072 0.042492833 0.08222622 -0.11081253 -0.11737572 -0.024887793 0.11360019 -0.071273156
-0.104812026 0.11036711 0.074585274 -0.042101093 -0.082867764 -0.0047293105 -0.04355465 -0.09656695
-0.05355373 0.049955115 0.041727602 -0.042094193 0.052582063 0.050510395 -0.095382065 -0.059092294
-0.025689082 0.051725887 0.0069934726 -0.00852462 0.048355572 -0.020854939 0.012370178 -0.05091437
-0.0121960575 0.06852841 0.017327059 0.10701399 -0.11066424 0.10372474 0.07792547 0.052981034
-0.060157146 0.026526432 -0.036327373 -0.10071382 0.097594954 0.02907643 -0.086694695 -0.0072742235
-0.104078576 -0.06864531 0.03288401 0.036781933 0.031972818 -0.0989635 -0.12479508 -0.0155289285
0.0076983413 0.09267302 -0.04154246 0.026906384 0.065164514 -0.07962587 0.0867299 -0.015462809
0.061045382 0.045653023 -0.078251705 -0.090127766 0.09374162 0.055670902 -0.1178846 -0.077388465
0.045778036 -0.003360764 0.17278415 -0.109875396 -0.084663786 0.061236076 -0.065420695 -0.031928614
-0.05027064 0.0032517074 0.0038956436 0.121882625 0.027042493 0.007900299 -0.021783749 0.07781002
0.045998108 -0.01969915 -0.07586611 0.09481773 -0.030732898 0.10137783 -0.11851213 0.058006678
-0.075046435 0.0016069275 -0.018656408 -0.0678584 -0.07882329 -0.13229235 -0.09858267 0.0049071005
-0.10810945 -0.026930539 0.14851463 -0.047541786 0.035797153 0.009615256 -0.06350959 -0.08910248
0.11206188 0.0024246017 -0.038953587 -0.13671416 0.082612336 0.08394228 0.054869443 0.051913727
0.02849145 -0.050206214 -0.13347313 0.0926845 0.09216825 -0.092658766 -0.10135067 0.06272475
-0.0020624003 0.066982634 -0.06282027 -0.118906915 -0.0791855 -0.00071440544 0.11492022 -0.10225994
0.052825127 -0.08480703 -0.16438434 -0.0010126529 -0.076454975 0.06400386 -0.039920185 0.12824897
-0.013944919 -0.14370996 -0.09401782 -0.10873008 -0.11613198 0.008856601 0.016356496 -0.11077616
-0.023302553 -0.04636782 -0.019348655 -0.017816834 0.05032737 -0.05766949 0.076026455 0.09536848
-0.01821525 0.039102722 -0.00020925532 0.08289986 -0.07349908 -0.09629223 -0.07315359 -0.112387076
0.002386345 0.10508619 -0.018390974 -0.020431923 0.07894479 -0.10960073 0.02616416 -0.08371339
-0.12678087 0.032045104 -0.07581865 0.035173945 0.019201046 -0.036311198 -0.03736366 -0.0918664
0.11423789 0.095181294 -0.08836414 -0.0010856491 -0.10618607 0.033721637 0.104743585 0.08464483
0.118209004 -0.11502571 0.042059477 -0.0033379882 -0.020509766 -0.087030575 0.04052102 -0.08921541
0.11527882 -0.07601589 0.08938966 0.012511202 -0.0339373 0.13000844 -0.13729273 0.103441805
-0.0993921 0.085717715 0.029860796 -0.004235693 0.078323185 0.10788034 0.04639051 0.051885612
0.037048735 0.035030853 -0.022063142 0.08335326 0.096224524 -0.110647224 0.02329138 -0.03992067
0.026918393 0.084826745 0.013390079 -0.029725425 0.0011532718 0.13416252 -0.09917929 -0.04024732
-0.05103791 0.10481611 0.08164911 0.029226895 0.08309244 0.08602507 0.1262358 -0.09129886
-0.056619566 -0.032054987 -0.10755025 -0.0012242384 0.093335144 0.06341777 -0.13675286 -0.13116725

encoder.layers.0.self_attn.W_o.bias f4 [64]
00000000: e063 533d c940 ef3d 80a1 89bd 781f cfbd
00000010: 5e77 a33d adca b23d 1366 75bc 193b 2abd
00000020: 4d50 c93d e40d c63c babc 823d d24e 04bd
00000030: e7dc 703c 8c16 013d ccfd cbbd dc05 903c
00000040: c1b6 5d3d c222 aabd c16f 973d efe5 50bd
00000050: f398 d63d 2257 b6bd 5857 8f3d 076c e2bd
00000060: 597c aa3d fe69 ed3d 1888 75bd 3c0e fb3c
00000070: 7eaf 0cbc 9050 b2bd 08a7 7aba 0192 44bd
00000080: e677 b63d afea f5bc cb37 043d 2975 a23d
00000090: 7b30 7fbd 0869 303d 52f0 c53d 59c9 c9bc
000000a0: 2435 a83d bc05 86bd 5a72 e6bc 9731 07be
000000b0: 3640 f13d f79f cfbd 85b7 903d 5a37 f6bd
000000c0: 85f0 343d 5b9b ffbd 3bf4 9ebd 1999 17bd
000000d0: e90c 513d db0e a0bd bd11 67bd 33e4 d73c
000000e0: d0f2 e4bc 12e0 a4bd f944 a93d b9f1 5c3d
000000f0: 876e 5b3d 9ae8 aebd ee0e f1bc d350 44bd
0.05160892 0.11682279 -0.06720257 -0.10113424 0.07981752 0.087300636 -0.01497795 -0.041560266
0.09829769 0.024176545 0.06383653 -0.03230173 0.014701105 0.031515643 -0.09960517 0.017580919
0.054129366 -0.08307411 0.07394362 -0.05100053 0.104783915 -0.08903338 0.069990814 -0.11055761
0.08324499 0.11592482 -0.059944242 0.030646436 -0.0085867625 -0.08706772 -0.0009561633 -0.047990803
0.089095876 -0.030019132 0.03227977 0.07932503 -0.062302094 0.043068916 0.09664978 -0.024632143
0.08213261 -0.065440625 -0.028130699 -0.13202511 0.117798254 -0.10137933 0.070662536 -0.12022276
0.04417469 -0.124808036 -0.07761427 -0.03701124 0.051037703 -0.078153335 -0.0564134 0.026353931
-0.027947813 -0.080505505 0.082651086 0.053941462 0.053572204 -0.08540459 -0.029426064 -0.047928642
